<?xml version="1.0"?>
<net name="Model0" version="11">
	<layers>
		<layer id="0" name="latent_batch" type="Parameter" version="opset1">
			<data shape="?,8,?,?" element_type="f32" />
			<output>
				<port id="0" precision="FP32" names="latent_batch">
					<dim>-1</dim>
					<dim>8</dim>
					<dim>-1</dim>
					<dim>-1</dim>
				</port>
			</output>
		</layer>
		<layer id="1" name="timesteps" type="Parameter" version="opset1">
			<data shape="?" element_type="i64" />
			<output>
				<port id="0" precision="I64" names="timesteps">
					<dim>-1</dim>
				</port>
			</output>
		</layer>
		<layer id="2" name="encoder_hidden_states" type="Parameter" version="opset1">
			<data shape="?,?,?" element_type="f32" />
			<output>
				<port id="0" precision="FP32" names="encoder_hidden_states">
					<dim>-1</dim>
					<dim>-1</dim>
					<dim>-1</dim>
				</port>
			</output>
		</layer>
		<layer id="3" name="self.model.conv_in.weight_compressed" type="Const" version="opset1">
			<data element_type="f16" shape="320, 8, 3, 3" offset="0" size="46080" />
			<output>
				<port id="0" precision="FP16" names="self.model.conv_in.weight">
					<dim>320</dim>
					<dim>8</dim>
					<dim>3</dim>
					<dim>3</dim>
				</port>
			</output>
		</layer>
		<layer id="4" name="self.model.conv_in.weight" type="Convert" version="opset1">
			<data destination_type="f32" />
			<rt_info>
				<attribute name="decompression" version="0" />
			</rt_info>
			<input>
				<port id="0" precision="FP16">
					<dim>320</dim>
					<dim>8</dim>
					<dim>3</dim>
					<dim>3</dim>
				</port>
			</input>
			<output>
				<port id="1" precision="FP32">
					<dim>320</dim>
					<dim>8</dim>
					<dim>3</dim>
					<dim>3</dim>
				</port>
			</output>
		</layer>
		<layer id="5" name="__module.model.conv_in/aten::_convolution/Convolution" type="Convolution" version="opset1">
			<data strides="1, 1" dilations="1, 1" pads_begin="1, 1" pads_end="1, 1" auto_pad="explicit" />
			<input>
				<port id="0" precision="FP32">
					<dim>-1</dim>
					<dim>8</dim>
					<dim>-1</dim>
					<dim>-1</dim>
				</port>
				<port id="1" precision="FP32">
					<dim>320</dim>
					<dim>8</dim>
					<dim>3</dim>
					<dim>3</dim>
				</port>
			</input>
			<output>
				<port id="2" precision="FP32">
					<dim>-1</dim>
					<dim>320</dim>
					<dim>-1</dim>
					<dim>-1</dim>
				</port>
			</output>
		</layer>
		<layer id="6" name="__module.model.conv_in/aten::_convolution/Reshape_compressed" type="Const" version="opset1">
			<data element_type="f16" shape="1, 320, 1, 1" offset="46080" size="640" />
			<output>
				<port id="0" precision="FP16">
					<dim>1</dim>
					<dim>320</dim>
					<dim>1</dim>
					<dim>1</dim>
				</port>
			</output>
		</layer>
		<layer id="7" name="__module.model.conv_in/aten::_convolution/Reshape" type="Convert" version="opset1">
			<data destination_type="f32" />
			<rt_info>
				<attribute name="decompression" version="0" />
			</rt_info>
			<input>
				<port id="0" precision="FP16">
					<dim>1</dim>
					<dim>320</dim>
					<dim>1</dim>
					<dim>1</dim>
				</port>
			</input>
			<output>
				<port id="1" precision="FP32">
					<dim>1</dim>
					<dim>320</dim>
					<dim>1</dim>
					<dim>1</dim>
				</port>
			</output>
		</layer>
		<layer id="8" name="__module.model.conv_in/aten::_convolution/Add" type="Add" version="opset1">
			<data auto_broadcast="numpy" />
			<input>
				<port id="0" precision="FP32">
					<dim>-1</dim>
					<dim>320</dim>
					<dim>-1</dim>
					<dim>-1</dim>
				</port>
				<port id="1" precision="FP32">
					<dim>1</dim>
					<dim>320</dim>
					<dim>1</dim>
					<dim>1</dim>
				</port>
			</input>
			<output>
				<port id="2" precision="FP32" names="94,input.7">
					<dim>-1</dim>
					<dim>320</dim>
					<dim>-1</dim>
					<dim>-1</dim>
				</port>
			</output>
		</layer>
		<layer id="9" name="self.model.down_blocks.0.resnets.0.norm1.weight_compressed" type="Const" version="opset1">
			<data element_type="f16" shape="320" offset="46720" size="640" />
			<output>
				<port id="0" precision="FP16" names="self.model.down_blocks.0.resnets.0.norm1.weight">
					<dim>320</dim>
				</port>
			</output>
		</layer>
		<layer id="10" name="self.model.down_blocks.0.resnets.0.norm1.weight" type="Convert" version="opset1">
			<data destination_type="f32" />
			<rt_info>
				<attribute name="decompression" version="0" />
			</rt_info>
			<input>
				<port id="0" precision="FP16">
					<dim>320</dim>
				</port>
			</input>
			<output>
				<port id="1" precision="FP32">
					<dim>320</dim>
				</port>
			</output>
		</layer>
		<layer id="11" name="self.model.down_blocks.0.resnets.0.norm1.bias_compressed" type="Const" version="opset1">
			<data element_type="f16" shape="320" offset="47360" size="640" />
			<output>
				<port id="0" precision="FP16" names="self.model.down_blocks.0.resnets.0.norm1.bias">
					<dim>320</dim>
				</port>
			</output>
		</layer>
		<layer id="12" name="self.model.down_blocks.0.resnets.0.norm1.bias" type="Convert" version="opset1">
			<data destination_type="f32" />
			<rt_info>
				<attribute name="decompression" version="0" />
			</rt_info>
			<input>
				<port id="0" precision="FP16">
					<dim>320</dim>
				</port>
			</input>
			<output>
				<port id="1" precision="FP32">
					<dim>320</dim>
				</port>
			</output>
		</layer>
		<layer id="13" name="__module.model.down_blocks.0.resnets.0.norm1/aten::group_norm/GroupNormalization" type="GroupNormalization" version="opset12">
			<data num_groups="32" epsilon="9.9999997473787516e-06" />
			<input>
				<port id="0" precision="FP32">
					<dim>-1</dim>
					<dim>320</dim>
					<dim>-1</dim>
					<dim>-1</dim>
				</port>
				<port id="1" precision="FP32">
					<dim>320</dim>
				</port>
				<port id="2" precision="FP32">
					<dim>320</dim>
				</port>
			</input>
			<output>
				<port id="3" precision="FP32" names="112,input.9">
					<dim>-1</dim>
					<dim>320</dim>
					<dim>-1</dim>
					<dim>-1</dim>
				</port>
			</output>
		</layer>
		<layer id="14" name="__module.model.conv_act/aten::silu/Swish" type="Swish" version="opset4">
			<input>
				<port id="0" precision="FP32">
					<dim>-1</dim>
					<dim>320</dim>
					<dim>-1</dim>
					<dim>-1</dim>
				</port>
			</input>
			<output>
				<port id="1" precision="FP32" names="113,input.11">
					<dim>-1</dim>
					<dim>320</dim>
					<dim>-1</dim>
					<dim>-1</dim>
				</port>
			</output>
		</layer>
		<layer id="15" name="self.model.down_blocks.0.resnets.0.conv1.weight_compressed" type="Const" version="opset1">
			<data element_type="f16" shape="320, 320, 3, 3" offset="48000" size="1843200" />
			<output>
				<port id="0" precision="FP16" names="self.model.down_blocks.0.resnets.0.conv1.weight">
					<dim>320</dim>
					<dim>320</dim>
					<dim>3</dim>
					<dim>3</dim>
				</port>
			</output>
		</layer>
		<layer id="16" name="self.model.down_blocks.0.resnets.0.conv1.weight" type="Convert" version="opset1">
			<data destination_type="f32" />
			<rt_info>
				<attribute name="decompression" version="0" />
			</rt_info>
			<input>
				<port id="0" precision="FP16">
					<dim>320</dim>
					<dim>320</dim>
					<dim>3</dim>
					<dim>3</dim>
				</port>
			</input>
			<output>
				<port id="1" precision="FP32">
					<dim>320</dim>
					<dim>320</dim>
					<dim>3</dim>
					<dim>3</dim>
				</port>
			</output>
		</layer>
		<layer id="17" name="__module.model.down_blocks.0.resnets.0.conv1/aten::_convolution/Convolution" type="Convolution" version="opset1">
			<data strides="1, 1" dilations="1, 1" pads_begin="1, 1" pads_end="1, 1" auto_pad="explicit" />
			<input>
				<port id="0" precision="FP32">
					<dim>-1</dim>
					<dim>320</dim>
					<dim>-1</dim>
					<dim>-1</dim>
				</port>
				<port id="1" precision="FP32">
					<dim>320</dim>
					<dim>320</dim>
					<dim>3</dim>
					<dim>3</dim>
				</port>
			</input>
			<output>
				<port id="2" precision="FP32">
					<dim>-1</dim>
					<dim>320</dim>
					<dim>-1</dim>
					<dim>-1</dim>
				</port>
			</output>
		</layer>
		<layer id="18" name="__module.model.down_blocks.0.resnets.0.conv1/aten::_convolution/Reshape_compressed" type="Const" version="opset1">
			<data element_type="f16" shape="1, 320, 1, 1" offset="1891200" size="640" />
			<output>
				<port id="0" precision="FP16">
					<dim>1</dim>
					<dim>320</dim>
					<dim>1</dim>
					<dim>1</dim>
				</port>
			</output>
		</layer>
		<layer id="19" name="__module.model.down_blocks.0.resnets.0.conv1/aten::_convolution/Reshape" type="Convert" version="opset1">
			<data destination_type="f32" />
			<rt_info>
				<attribute name="decompression" version="0" />
			</rt_info>
			<input>
				<port id="0" precision="FP16">
					<dim>1</dim>
					<dim>320</dim>
					<dim>1</dim>
					<dim>1</dim>
				</port>
			</input>
			<output>
				<port id="1" precision="FP32">
					<dim>1</dim>
					<dim>320</dim>
					<dim>1</dim>
					<dim>1</dim>
				</port>
			</output>
		</layer>
		<layer id="20" name="__module.model.down_blocks.0.resnets.0.conv1/aten::_convolution/Add" type="Add" version="opset1">
			<data auto_broadcast="numpy" />
			<input>
				<port id="0" precision="FP32">
					<dim>-1</dim>
					<dim>320</dim>
					<dim>-1</dim>
					<dim>-1</dim>
				</port>
				<port id="1" precision="FP32">
					<dim>1</dim>
					<dim>320</dim>
					<dim>1</dim>
					<dim>1</dim>
				</port>
			</input>
			<output>
				<port id="2" precision="FP32" names="120,hidden_states.1">
					<dim>-1</dim>
					<dim>320</dim>
					<dim>-1</dim>
					<dim>-1</dim>
				</port>
			</output>
		</layer>
		<layer id="21" name="ShapeOf_60876" type="ShapeOf" version="opset3">
			<data output_type="i64" />
			<input>
				<port id="0" precision="FP32">
					<dim>-1</dim>
					<dim>8</dim>
					<dim>-1</dim>
					<dim>-1</dim>
				</port>
			</input>
			<output>
				<port id="1" precision="I64">
					<dim>4</dim>
				</port>
			</output>
		</layer>
		<layer id="22" name="Constant_60877" type="Const" version="opset1">
			<data element_type="i64" shape="1" offset="1891840" size="8" />
			<rt_info>
				<attribute name="precise" version="0" />
			</rt_info>
			<output>
				<port id="0" precision="I64">
					<dim>1</dim>
				</port>
			</output>
		</layer>
		<layer id="23" name="Constant_60878" type="Const" version="opset1">
			<data element_type="i64" shape="" offset="1891840" size="8" />
			<rt_info>
				<attribute name="precise" version="0" />
			</rt_info>
			<output>
				<port id="0" precision="I64" />
			</output>
		</layer>
		<layer id="24" name="Gather_60879" type="Gather" version="opset8">
			<data batch_dims="0" />
			<input>
				<port id="0" precision="I64">
					<dim>4</dim>
				</port>
				<port id="1" precision="I64">
					<dim>1</dim>
				</port>
				<port id="2" precision="I64" />
			</input>
			<output>
				<port id="3" precision="I64" names="3428,3431,3468,54">
					<dim>1</dim>
				</port>
			</output>
		</layer>
		<layer id="25" name="__module.model/aten::expand/Broadcast" type="Broadcast" version="opset3">
			<data mode="bidirectional" />
			<input>
				<port id="0" precision="I64">
					<dim>-1</dim>
				</port>
				<port id="1" precision="I64">
					<dim>1</dim>
				</port>
			</input>
			<output>
				<port id="2" precision="I64" names="56,61,timesteps_1">
					<dim>-1</dim>
				</port>
			</output>
		</layer>
		<layer id="26" name="28" type="Const" version="opset1">
			<data element_type="i64" shape="" offset="1891848" size="8" />
			<output>
				<port id="0" precision="I64" names="28" />
			</output>
		</layer>
		<layer id="27" name="__module.model.time_proj/aten::unsqueeze/Unsqueeze" type="Unsqueeze" version="opset1">
			<input>
				<port id="0" precision="I64">
					<dim>-1</dim>
				</port>
				<port id="1" precision="I64" />
			</input>
			<output>
				<port id="2" precision="I64" names="62">
					<dim>-1</dim>
					<dim>1</dim>
				</port>
			</output>
		</layer>
		<layer id="28" name="__module.model.time_proj/aten::to/Convert" type="Convert" version="opset1">
			<data destination_type="f32" />
			<input>
				<port id="0" precision="I64">
					<dim>-1</dim>
					<dim>1</dim>
				</port>
			</input>
			<output>
				<port id="1" precision="FP32" names="63">
					<dim>-1</dim>
					<dim>1</dim>
				</port>
			</output>
		</layer>
		<layer id="29" name="__module.model.time_proj/aten::slice/Slice_1_compressed" type="Const" version="opset1">
			<data element_type="f16" shape="1, 160" offset="1891856" size="320" />
			<output>
				<port id="0" precision="FP16" names="65">
					<dim>1</dim>
					<dim>160</dim>
				</port>
			</output>
		</layer>
		<layer id="30" name="__module.model.time_proj/aten::slice/Slice_1" type="Convert" version="opset1">
			<data destination_type="f32" />
			<rt_info>
				<attribute name="decompression" version="0" />
			</rt_info>
			<input>
				<port id="0" precision="FP16">
					<dim>1</dim>
					<dim>160</dim>
				</port>
			</input>
			<output>
				<port id="1" precision="FP32">
					<dim>1</dim>
					<dim>160</dim>
				</port>
			</output>
		</layer>
		<layer id="31" name="__module.model.time_proj/aten::mul/Multiply_1" type="Multiply" version="opset1">
			<data auto_broadcast="numpy" />
			<input>
				<port id="0" precision="FP32">
					<dim>-1</dim>
					<dim>1</dim>
				</port>
				<port id="1" precision="FP32">
					<dim>1</dim>
					<dim>160</dim>
				</port>
			</input>
			<output>
				<port id="2" precision="FP32" names="66,67,emb.3,emb.5">
					<dim>-1</dim>
					<dim>160</dim>
				</port>
			</output>
		</layer>
		<layer id="32" name="__module.model.time_proj/aten::sin/Sin" type="Sin" version="opset1">
			<input>
				<port id="0" precision="FP32">
					<dim>-1</dim>
					<dim>160</dim>
				</port>
			</input>
			<output>
				<port id="1" precision="FP32" names="68">
					<dim>-1</dim>
					<dim>160</dim>
				</port>
			</output>
		</layer>
		<layer id="33" name="__module.model.time_proj/aten::cos/Cos" type="Cos" version="opset1">
			<input>
				<port id="0" precision="FP32">
					<dim>-1</dim>
					<dim>160</dim>
				</port>
			</input>
			<output>
				<port id="1" precision="FP32" names="69">
					<dim>-1</dim>
					<dim>160</dim>
				</port>
			</output>
		</layer>
		<layer id="34" name="__module.model.time_proj/aten::cat/Concat" type="Concat" version="opset1">
			<data axis="-1" />
			<input>
				<port id="0" precision="FP32">
					<dim>-1</dim>
					<dim>160</dim>
				</port>
				<port id="1" precision="FP32">
					<dim>-1</dim>
					<dim>160</dim>
				</port>
			</input>
			<output>
				<port id="2" precision="FP32" names="71,72,74,emb">
					<dim>-1</dim>
					<dim>320</dim>
				</port>
			</output>
		</layer>
		<layer id="35" name="Constant_152" type="Const" version="opset1">
			<data element_type="i64" shape="1" offset="1892176" size="8" />
			<output>
				<port id="0" precision="I64">
					<dim>1</dim>
				</port>
			</output>
		</layer>
		<layer id="36" name="Constant_154" type="Const" version="opset1">
			<data element_type="i64" shape="1" offset="1892184" size="8" />
			<output>
				<port id="0" precision="I64">
					<dim>1</dim>
				</port>
			</output>
		</layer>
		<layer id="37" name="Constant_156" type="Const" version="opset1">
			<data element_type="i64" shape="1" offset="1891848" size="8" />
			<output>
				<port id="0" precision="I64">
					<dim>1</dim>
				</port>
			</output>
		</layer>
		<layer id="38" name="Constant_150" type="Const" version="opset1">
			<data element_type="i64" shape="1" offset="1891848" size="8" />
			<output>
				<port id="0" precision="I64">
					<dim>1</dim>
				</port>
			</output>
		</layer>
		<layer id="39" name="__module.model.time_proj/aten::slice/Slice_3" type="Slice" version="opset8">
			<input>
				<port id="0" precision="FP32">
					<dim>-1</dim>
					<dim>320</dim>
				</port>
				<port id="1" precision="I64">
					<dim>1</dim>
				</port>
				<port id="2" precision="I64">
					<dim>1</dim>
				</port>
				<port id="3" precision="I64">
					<dim>1</dim>
				</port>
				<port id="4" precision="I64">
					<dim>1</dim>
				</port>
			</input>
			<output>
				<port id="5" precision="FP32" names="73">
					<dim>-1</dim>
					<dim>160</dim>
				</port>
			</output>
		</layer>
		<layer id="40" name="Constant_172" type="Const" version="opset1">
			<data element_type="i64" shape="1" offset="1891840" size="8" />
			<output>
				<port id="0" precision="I64">
					<dim>1</dim>
				</port>
			</output>
		</layer>
		<layer id="41" name="Constant_174" type="Const" version="opset1">
			<data element_type="i64" shape="1" offset="1892176" size="8" />
			<output>
				<port id="0" precision="I64">
					<dim>1</dim>
				</port>
			</output>
		</layer>
		<layer id="42" name="Constant_176" type="Const" version="opset1">
			<data element_type="i64" shape="1" offset="1891848" size="8" />
			<output>
				<port id="0" precision="I64">
					<dim>1</dim>
				</port>
			</output>
		</layer>
		<layer id="43" name="Constant_170" type="Const" version="opset1">
			<data element_type="i64" shape="1" offset="1891848" size="8" />
			<output>
				<port id="0" precision="I64">
					<dim>1</dim>
				</port>
			</output>
		</layer>
		<layer id="44" name="__module.model.time_proj/aten::slice/Slice_5" type="Slice" version="opset8">
			<input>
				<port id="0" precision="FP32">
					<dim>-1</dim>
					<dim>320</dim>
				</port>
				<port id="1" precision="I64">
					<dim>1</dim>
				</port>
				<port id="2" precision="I64">
					<dim>1</dim>
				</port>
				<port id="3" precision="I64">
					<dim>1</dim>
				</port>
				<port id="4" precision="I64">
					<dim>1</dim>
				</port>
			</input>
			<output>
				<port id="5" precision="FP32" names="75">
					<dim>-1</dim>
					<dim>160</dim>
				</port>
			</output>
		</layer>
		<layer id="45" name="__module.model.time_proj/aten::cat/Concat_1" type="Concat" version="opset1">
			<data axis="-1" />
			<input>
				<port id="0" precision="FP32">
					<dim>-1</dim>
					<dim>160</dim>
				</port>
				<port id="1" precision="FP32">
					<dim>-1</dim>
					<dim>160</dim>
				</port>
			</input>
			<output>
				<port id="2" precision="FP32" names="77,78,input.1,t_emb">
					<dim>-1</dim>
					<dim>320</dim>
				</port>
			</output>
		</layer>
		<layer id="46" name="self.model.time_embedding.linear_1.weight_compressed" type="Const" version="opset1">
			<data element_type="f16" shape="1280, 320" offset="1892192" size="819200" />
			<output>
				<port id="0" precision="FP16" names="self.model.time_embedding.linear_1.weight">
					<dim>1280</dim>
					<dim>320</dim>
				</port>
			</output>
		</layer>
		<layer id="47" name="self.model.time_embedding.linear_1.weight" type="Convert" version="opset1">
			<data destination_type="f32" />
			<rt_info>
				<attribute name="decompression" version="0" />
			</rt_info>
			<input>
				<port id="0" precision="FP16">
					<dim>1280</dim>
					<dim>320</dim>
				</port>
			</input>
			<output>
				<port id="1" precision="FP32">
					<dim>1280</dim>
					<dim>320</dim>
				</port>
			</output>
		</layer>
		<layer id="48" name="__module.model.time_embedding.linear_1/aten::linear/MatMul" type="MatMul" version="opset1">
			<data transpose_a="false" transpose_b="true" />
			<input>
				<port id="0" precision="FP32">
					<dim>-1</dim>
					<dim>320</dim>
				</port>
				<port id="1" precision="FP32">
					<dim>1280</dim>
					<dim>320</dim>
				</port>
			</input>
			<output>
				<port id="2" precision="FP32">
					<dim>-1</dim>
					<dim>1280</dim>
				</port>
			</output>
		</layer>
		<layer id="49" name="Constant_58345_compressed" type="Const" version="opset1">
			<data element_type="f16" shape="1, 1280" offset="2711392" size="2560" />
			<output>
				<port id="0" precision="FP16">
					<dim>1</dim>
					<dim>1280</dim>
				</port>
			</output>
		</layer>
		<layer id="50" name="Constant_58345" type="Convert" version="opset1">
			<data destination_type="f32" />
			<rt_info>
				<attribute name="decompression" version="0" />
			</rt_info>
			<input>
				<port id="0" precision="FP16">
					<dim>1</dim>
					<dim>1280</dim>
				</port>
			</input>
			<output>
				<port id="1" precision="FP32">
					<dim>1</dim>
					<dim>1280</dim>
				</port>
			</output>
		</layer>
		<layer id="51" name="__module.model.time_embedding.linear_1/aten::linear/Add" type="Add" version="opset1">
			<data auto_broadcast="numpy" />
			<input>
				<port id="0" precision="FP32">
					<dim>-1</dim>
					<dim>1280</dim>
				</port>
				<port id="1" precision="FP32">
					<dim>1</dim>
					<dim>1280</dim>
				</port>
			</input>
			<output>
				<port id="2" precision="FP32" names="83,input.3">
					<dim>-1</dim>
					<dim>1280</dim>
				</port>
			</output>
		</layer>
		<layer id="52" name="__module.model.conv_act/aten::silu/Swish_1" type="Swish" version="opset4">
			<input>
				<port id="0" precision="FP32">
					<dim>-1</dim>
					<dim>1280</dim>
				</port>
			</input>
			<output>
				<port id="1" precision="FP32" names="84,input.5">
					<dim>-1</dim>
					<dim>1280</dim>
				</port>
			</output>
		</layer>
		<layer id="53" name="self.model.time_embedding.linear_2.weight_compressed" type="Const" version="opset1">
			<data element_type="f16" shape="1280, 1280" offset="2713952" size="3276800" />
			<output>
				<port id="0" precision="FP16" names="self.model.time_embedding.linear_2.weight">
					<dim>1280</dim>
					<dim>1280</dim>
				</port>
			</output>
		</layer>
		<layer id="54" name="self.model.time_embedding.linear_2.weight" type="Convert" version="opset1">
			<data destination_type="f32" />
			<rt_info>
				<attribute name="decompression" version="0" />
			</rt_info>
			<input>
				<port id="0" precision="FP16">
					<dim>1280</dim>
					<dim>1280</dim>
				</port>
			</input>
			<output>
				<port id="1" precision="FP32">
					<dim>1280</dim>
					<dim>1280</dim>
				</port>
			</output>
		</layer>
		<layer id="55" name="__module.model.time_embedding.linear_2/aten::linear/MatMul" type="MatMul" version="opset1">
			<data transpose_a="false" transpose_b="true" />
			<input>
				<port id="0" precision="FP32">
					<dim>-1</dim>
					<dim>1280</dim>
				</port>
				<port id="1" precision="FP32">
					<dim>1280</dim>
					<dim>1280</dim>
				</port>
			</input>
			<output>
				<port id="2" precision="FP32">
					<dim>-1</dim>
					<dim>1280</dim>
				</port>
			</output>
		</layer>
		<layer id="56" name="Constant_58346_compressed" type="Const" version="opset1">
			<data element_type="f16" shape="1, 1280" offset="5990752" size="2560" />
			<output>
				<port id="0" precision="FP16">
					<dim>1</dim>
					<dim>1280</dim>
				</port>
			</output>
		</layer>
		<layer id="57" name="Constant_58346" type="Convert" version="opset1">
			<data destination_type="f32" />
			<rt_info>
				<attribute name="decompression" version="0" />
			</rt_info>
			<input>
				<port id="0" precision="FP16">
					<dim>1</dim>
					<dim>1280</dim>
				</port>
			</input>
			<output>
				<port id="1" precision="FP32">
					<dim>1</dim>
					<dim>1280</dim>
				</port>
			</output>
		</layer>
		<layer id="58" name="__module.model.time_embedding.linear_2/aten::linear/Add" type="Add" version="opset1">
			<data auto_broadcast="numpy" />
			<input>
				<port id="0" precision="FP32">
					<dim>-1</dim>
					<dim>1280</dim>
				</port>
				<port id="1" precision="FP32">
					<dim>1</dim>
					<dim>1280</dim>
				</port>
			</input>
			<output>
				<port id="2" precision="FP32" names="87,input.13">
					<dim>-1</dim>
					<dim>1280</dim>
				</port>
			</output>
		</layer>
		<layer id="59" name="__module.model.conv_act/aten::silu/Swish_2" type="Swish" version="opset4">
			<input>
				<port id="0" precision="FP32">
					<dim>-1</dim>
					<dim>1280</dim>
				</port>
			</input>
			<output>
				<port id="1" precision="FP32" names="1171,121,1385,1424,1472,1670,1720,1769,1818,1891,2099,2307,2539,2747,2955,3185,319,3393,3601,540,745,966,input.135,input.15,input.175,input.215,input.255,input.271,input.287,input.327,input.343,input.359,input.375,input.393,input.433,input.473,input.515,input.55,input.555,input.595,input.637,input.677,input.717,input.95">
					<dim>-1</dim>
					<dim>1280</dim>
				</port>
			</output>
		</layer>
		<layer id="60" name="self.model.down_blocks.0.resnets.0.time_emb_proj.weight_compressed" type="Const" version="opset1">
			<data element_type="f16" shape="320, 1280" offset="5993312" size="819200" />
			<output>
				<port id="0" precision="FP16" names="self.model.down_blocks.0.resnets.0.time_emb_proj.weight">
					<dim>320</dim>
					<dim>1280</dim>
				</port>
			</output>
		</layer>
		<layer id="61" name="self.model.down_blocks.0.resnets.0.time_emb_proj.weight" type="Convert" version="opset1">
			<data destination_type="f32" />
			<rt_info>
				<attribute name="decompression" version="0" />
			</rt_info>
			<input>
				<port id="0" precision="FP16">
					<dim>320</dim>
					<dim>1280</dim>
				</port>
			</input>
			<output>
				<port id="1" precision="FP32">
					<dim>320</dim>
					<dim>1280</dim>
				</port>
			</output>
		</layer>
		<layer id="62" name="__module.model.down_blocks.0.resnets.0.time_emb_proj/aten::linear/MatMul" type="MatMul" version="opset1">
			<data transpose_a="false" transpose_b="true" />
			<input>
				<port id="0" precision="FP32">
					<dim>-1</dim>
					<dim>1280</dim>
				</port>
				<port id="1" precision="FP32">
					<dim>320</dim>
					<dim>1280</dim>
				</port>
			</input>
			<output>
				<port id="2" precision="FP32">
					<dim>-1</dim>
					<dim>320</dim>
				</port>
			</output>
		</layer>
		<layer id="63" name="Constant_58347_compressed" type="Const" version="opset1">
			<data element_type="f16" shape="1, 320" offset="6812512" size="640" />
			<output>
				<port id="0" precision="FP16">
					<dim>1</dim>
					<dim>320</dim>
				</port>
			</output>
		</layer>
		<layer id="64" name="Constant_58347" type="Convert" version="opset1">
			<data destination_type="f32" />
			<rt_info>
				<attribute name="decompression" version="0" />
			</rt_info>
			<input>
				<port id="0" precision="FP16">
					<dim>1</dim>
					<dim>320</dim>
				</port>
			</input>
			<output>
				<port id="1" precision="FP32">
					<dim>1</dim>
					<dim>320</dim>
				</port>
			</output>
		</layer>
		<layer id="65" name="__module.model.down_blocks.0.resnets.0.time_emb_proj/aten::linear/Add" type="Add" version="opset1">
			<data auto_broadcast="numpy" />
			<input>
				<port id="0" precision="FP32">
					<dim>-1</dim>
					<dim>320</dim>
				</port>
				<port id="1" precision="FP32">
					<dim>1</dim>
					<dim>320</dim>
				</port>
			</input>
			<output>
				<port id="2" precision="FP32" names="124,125,126">
					<dim>-1</dim>
					<dim>320</dim>
				</port>
			</output>
		</layer>
		<layer id="66" name="12" type="Const" version="opset1">
			<data element_type="i64" shape="" offset="6813152" size="8" />
			<output>
				<port id="0" precision="I64" names="12" />
			</output>
		</layer>
		<layer id="67" name="__module.model.down_blocks.0.resnets.0/aten::unsqueeze/Unsqueeze" type="Unsqueeze" version="opset1">
			<input>
				<port id="0" precision="FP32">
					<dim>-1</dim>
					<dim>320</dim>
				</port>
				<port id="1" precision="I64" />
			</input>
			<output>
				<port id="2" precision="FP32" names="127">
					<dim>-1</dim>
					<dim>320</dim>
					<dim>1</dim>
				</port>
			</output>
		</layer>
		<layer id="68" name="11" type="Const" version="opset1">
			<data element_type="i64" shape="" offset="6813160" size="8" />
			<output>
				<port id="0" precision="I64" names="11" />
			</output>
		</layer>
		<layer id="69" name="__module.model.down_blocks.0.resnets.0/aten::unsqueeze/Unsqueeze_1" type="Unsqueeze" version="opset1">
			<input>
				<port id="0" precision="FP32">
					<dim>-1</dim>
					<dim>320</dim>
					<dim>1</dim>
				</port>
				<port id="1" precision="I64" />
			</input>
			<output>
				<port id="2" precision="FP32" names="128,temb.1">
					<dim>-1</dim>
					<dim>320</dim>
					<dim>1</dim>
					<dim>1</dim>
				</port>
			</output>
		</layer>
		<layer id="70" name="__module.model.down_blocks.0.resnets.0/aten::add/Add" type="Add" version="opset1">
			<data auto_broadcast="numpy" />
			<input>
				<port id="0" precision="FP32">
					<dim>-1</dim>
					<dim>320</dim>
					<dim>-1</dim>
					<dim>-1</dim>
				</port>
				<port id="1" precision="FP32">
					<dim>-1</dim>
					<dim>320</dim>
					<dim>1</dim>
					<dim>1</dim>
				</port>
			</input>
			<output>
				<port id="2" precision="FP32" names="129,input.17">
					<dim>-1</dim>
					<dim>320</dim>
					<dim>-1</dim>
					<dim>-1</dim>
				</port>
			</output>
		</layer>
		<layer id="71" name="self.model.down_blocks.0.resnets.0.norm2.weight_compressed" type="Const" version="opset1">
			<data element_type="f16" shape="320" offset="6813168" size="640" />
			<output>
				<port id="0" precision="FP16" names="self.model.down_blocks.0.resnets.0.norm2.weight">
					<dim>320</dim>
				</port>
			</output>
		</layer>
		<layer id="72" name="self.model.down_blocks.0.resnets.0.norm2.weight" type="Convert" version="opset1">
			<data destination_type="f32" />
			<rt_info>
				<attribute name="decompression" version="0" />
			</rt_info>
			<input>
				<port id="0" precision="FP16">
					<dim>320</dim>
				</port>
			</input>
			<output>
				<port id="1" precision="FP32">
					<dim>320</dim>
				</port>
			</output>
		</layer>
		<layer id="73" name="self.model.down_blocks.0.resnets.0.norm2.bias_compressed" type="Const" version="opset1">
			<data element_type="f16" shape="320" offset="6813808" size="640" />
			<output>
				<port id="0" precision="FP16" names="self.model.down_blocks.0.resnets.0.norm2.bias">
					<dim>320</dim>
				</port>
			</output>
		</layer>
		<layer id="74" name="self.model.down_blocks.0.resnets.0.norm2.bias" type="Convert" version="opset1">
			<data destination_type="f32" />
			<rt_info>
				<attribute name="decompression" version="0" />
			</rt_info>
			<input>
				<port id="0" precision="FP16">
					<dim>320</dim>
				</port>
			</input>
			<output>
				<port id="1" precision="FP32">
					<dim>320</dim>
				</port>
			</output>
		</layer>
		<layer id="75" name="__module.model.down_blocks.0.resnets.0.norm2/aten::group_norm/GroupNormalization" type="GroupNormalization" version="opset12">
			<data num_groups="32" epsilon="9.9999997473787516e-06" />
			<input>
				<port id="0" precision="FP32">
					<dim>-1</dim>
					<dim>320</dim>
					<dim>-1</dim>
					<dim>-1</dim>
				</port>
				<port id="1" precision="FP32">
					<dim>320</dim>
				</port>
				<port id="2" precision="FP32">
					<dim>320</dim>
				</port>
			</input>
			<output>
				<port id="3" precision="FP32" names="132,input.19">
					<dim>-1</dim>
					<dim>320</dim>
					<dim>-1</dim>
					<dim>-1</dim>
				</port>
			</output>
		</layer>
		<layer id="76" name="__module.model.conv_act/aten::silu/Swish_3" type="Swish" version="opset4">
			<input>
				<port id="0" precision="FP32">
					<dim>-1</dim>
					<dim>320</dim>
					<dim>-1</dim>
					<dim>-1</dim>
				</port>
			</input>
			<output>
				<port id="1" precision="FP32" names="133,input.21">
					<dim>-1</dim>
					<dim>320</dim>
					<dim>-1</dim>
					<dim>-1</dim>
				</port>
			</output>
		</layer>
		<layer id="77" name="self.model.down_blocks.0.resnets.0.conv2.weight_compressed" type="Const" version="opset1">
			<data element_type="f16" shape="320, 320, 3, 3" offset="6814448" size="1843200" />
			<output>
				<port id="0" precision="FP16" names="self.model.down_blocks.0.resnets.0.conv2.weight">
					<dim>320</dim>
					<dim>320</dim>
					<dim>3</dim>
					<dim>3</dim>
				</port>
			</output>
		</layer>
		<layer id="78" name="self.model.down_blocks.0.resnets.0.conv2.weight" type="Convert" version="opset1">
			<data destination_type="f32" />
			<rt_info>
				<attribute name="decompression" version="0" />
			</rt_info>
			<input>
				<port id="0" precision="FP16">
					<dim>320</dim>
					<dim>320</dim>
					<dim>3</dim>
					<dim>3</dim>
				</port>
			</input>
			<output>
				<port id="1" precision="FP32">
					<dim>320</dim>
					<dim>320</dim>
					<dim>3</dim>
					<dim>3</dim>
				</port>
			</output>
		</layer>
		<layer id="79" name="__module.model.down_blocks.0.resnets.0.conv2/aten::_convolution/Convolution" type="Convolution" version="opset1">
			<data strides="1, 1" dilations="1, 1" pads_begin="1, 1" pads_end="1, 1" auto_pad="explicit" />
			<input>
				<port id="0" precision="FP32">
					<dim>-1</dim>
					<dim>320</dim>
					<dim>-1</dim>
					<dim>-1</dim>
				</port>
				<port id="1" precision="FP32">
					<dim>320</dim>
					<dim>320</dim>
					<dim>3</dim>
					<dim>3</dim>
				</port>
			</input>
			<output>
				<port id="2" precision="FP32">
					<dim>-1</dim>
					<dim>320</dim>
					<dim>-1</dim>
					<dim>-1</dim>
				</port>
			</output>
		</layer>
		<layer id="80" name="__module.model.down_blocks.0.resnets.0.conv2/aten::_convolution/Reshape_compressed" type="Const" version="opset1">
			<data element_type="f16" shape="1, 320, 1, 1" offset="8657648" size="640" />
			<output>
				<port id="0" precision="FP16">
					<dim>1</dim>
					<dim>320</dim>
					<dim>1</dim>
					<dim>1</dim>
				</port>
			</output>
		</layer>
		<layer id="81" name="__module.model.down_blocks.0.resnets.0.conv2/aten::_convolution/Reshape" type="Convert" version="opset1">
			<data destination_type="f32" />
			<rt_info>
				<attribute name="decompression" version="0" />
			</rt_info>
			<input>
				<port id="0" precision="FP16">
					<dim>1</dim>
					<dim>320</dim>
					<dim>1</dim>
					<dim>1</dim>
				</port>
			</input>
			<output>
				<port id="1" precision="FP32">
					<dim>1</dim>
					<dim>320</dim>
					<dim>1</dim>
					<dim>1</dim>
				</port>
			</output>
		</layer>
		<layer id="82" name="__module.model.down_blocks.0.resnets.0.conv2/aten::_convolution/Add" type="Add" version="opset1">
			<data auto_broadcast="numpy" />
			<input>
				<port id="0" precision="FP32">
					<dim>-1</dim>
					<dim>320</dim>
					<dim>-1</dim>
					<dim>-1</dim>
				</port>
				<port id="1" precision="FP32">
					<dim>1</dim>
					<dim>320</dim>
					<dim>1</dim>
					<dim>1</dim>
				</port>
			</input>
			<output>
				<port id="2" precision="FP32" names="141,hidden_states.3">
					<dim>-1</dim>
					<dim>320</dim>
					<dim>-1</dim>
					<dim>-1</dim>
				</port>
			</output>
		</layer>
		<layer id="83" name="__module.model.down_blocks.0.resnets.0/aten::add/Add_1" type="Add" version="opset1">
			<data auto_broadcast="numpy" />
			<input>
				<port id="0" precision="FP32">
					<dim>-1</dim>
					<dim>320</dim>
					<dim>-1</dim>
					<dim>-1</dim>
				</port>
				<port id="1" precision="FP32">
					<dim>-1</dim>
					<dim>320</dim>
					<dim>-1</dim>
					<dim>-1</dim>
				</port>
			</input>
			<output>
				<port id="2" precision="FP32" names="142,143,hidden_states.5">
					<dim>-1</dim>
					<dim>320</dim>
					<dim>-1</dim>
					<dim>-1</dim>
				</port>
			</output>
		</layer>
		<layer id="84" name="self.model.down_blocks.0.attentions.0.norm.weight_compressed" type="Const" version="opset1">
			<data element_type="f16" shape="320" offset="8658288" size="640" />
			<output>
				<port id="0" precision="FP16" names="self.model.down_blocks.0.attentions.0.norm.weight">
					<dim>320</dim>
				</port>
			</output>
		</layer>
		<layer id="85" name="self.model.down_blocks.0.attentions.0.norm.weight" type="Convert" version="opset1">
			<data destination_type="f32" />
			<rt_info>
				<attribute name="decompression" version="0" />
			</rt_info>
			<input>
				<port id="0" precision="FP16">
					<dim>320</dim>
				</port>
			</input>
			<output>
				<port id="1" precision="FP32">
					<dim>320</dim>
				</port>
			</output>
		</layer>
		<layer id="86" name="self.model.down_blocks.0.attentions.0.norm.bias_compressed" type="Const" version="opset1">
			<data element_type="f16" shape="320" offset="8658928" size="640" />
			<output>
				<port id="0" precision="FP16" names="self.model.down_blocks.0.attentions.0.norm.bias">
					<dim>320</dim>
				</port>
			</output>
		</layer>
		<layer id="87" name="self.model.down_blocks.0.attentions.0.norm.bias" type="Convert" version="opset1">
			<data destination_type="f32" />
			<rt_info>
				<attribute name="decompression" version="0" />
			</rt_info>
			<input>
				<port id="0" precision="FP16">
					<dim>320</dim>
				</port>
			</input>
			<output>
				<port id="1" precision="FP32">
					<dim>320</dim>
				</port>
			</output>
		</layer>
		<layer id="88" name="__module.model.down_blocks.0.attentions.0.norm/aten::group_norm/GroupNormalization" type="GroupNormalization" version="opset12">
			<data num_groups="32" epsilon="9.9999999747524271e-07" />
			<input>
				<port id="0" precision="FP32">
					<dim>-1</dim>
					<dim>320</dim>
					<dim>-1</dim>
					<dim>-1</dim>
				</port>
				<port id="1" precision="FP32">
					<dim>320</dim>
				</port>
				<port id="2" precision="FP32">
					<dim>320</dim>
				</port>
			</input>
			<output>
				<port id="3" precision="FP32" names="159,input.25">
					<dim>-1</dim>
					<dim>320</dim>
					<dim>-1</dim>
					<dim>-1</dim>
				</port>
			</output>
		</layer>
		<layer id="89" name="self.model.down_blocks.0.attentions.0.proj_in.weight_compressed" type="Const" version="opset1">
			<data element_type="f16" shape="320, 320, 1, 1" offset="8659568" size="204800" />
			<output>
				<port id="0" precision="FP16" names="self.model.down_blocks.0.attentions.0.proj_in.weight">
					<dim>320</dim>
					<dim>320</dim>
					<dim>1</dim>
					<dim>1</dim>
				</port>
			</output>
		</layer>
		<layer id="90" name="self.model.down_blocks.0.attentions.0.proj_in.weight" type="Convert" version="opset1">
			<data destination_type="f32" />
			<rt_info>
				<attribute name="decompression" version="0" />
			</rt_info>
			<input>
				<port id="0" precision="FP16">
					<dim>320</dim>
					<dim>320</dim>
					<dim>1</dim>
					<dim>1</dim>
				</port>
			</input>
			<output>
				<port id="1" precision="FP32">
					<dim>320</dim>
					<dim>320</dim>
					<dim>1</dim>
					<dim>1</dim>
				</port>
			</output>
		</layer>
		<layer id="91" name="__module.model.down_blocks.0.attentions.0.proj_in/aten::_convolution/Convolution" type="Convolution" version="opset1">
			<data strides="1, 1" dilations="1, 1" pads_begin="0, 0" pads_end="0, 0" auto_pad="explicit" />
			<input>
				<port id="0" precision="FP32">
					<dim>-1</dim>
					<dim>320</dim>
					<dim>-1</dim>
					<dim>-1</dim>
				</port>
				<port id="1" precision="FP32">
					<dim>320</dim>
					<dim>320</dim>
					<dim>1</dim>
					<dim>1</dim>
				</port>
			</input>
			<output>
				<port id="2" precision="FP32">
					<dim>-1</dim>
					<dim>320</dim>
					<dim>-1</dim>
					<dim>-1</dim>
				</port>
			</output>
		</layer>
		<layer id="92" name="__module.model.down_blocks.0.attentions.0.proj_in/aten::_convolution/Reshape_compressed" type="Const" version="opset1">
			<data element_type="f16" shape="1, 320, 1, 1" offset="8864368" size="640" />
			<output>
				<port id="0" precision="FP16">
					<dim>1</dim>
					<dim>320</dim>
					<dim>1</dim>
					<dim>1</dim>
				</port>
			</output>
		</layer>
		<layer id="93" name="__module.model.down_blocks.0.attentions.0.proj_in/aten::_convolution/Reshape" type="Convert" version="opset1">
			<data destination_type="f32" />
			<rt_info>
				<attribute name="decompression" version="0" />
			</rt_info>
			<input>
				<port id="0" precision="FP16">
					<dim>1</dim>
					<dim>320</dim>
					<dim>1</dim>
					<dim>1</dim>
				</port>
			</input>
			<output>
				<port id="1" precision="FP32">
					<dim>1</dim>
					<dim>320</dim>
					<dim>1</dim>
					<dim>1</dim>
				</port>
			</output>
		</layer>
		<layer id="94" name="__module.model.down_blocks.0.attentions.0.proj_in/aten::_convolution/Add" type="Add" version="opset1">
			<data auto_broadcast="numpy" />
			<input>
				<port id="0" precision="FP32">
					<dim>-1</dim>
					<dim>320</dim>
					<dim>-1</dim>
					<dim>-1</dim>
				</port>
				<port id="1" precision="FP32">
					<dim>1</dim>
					<dim>320</dim>
					<dim>1</dim>
					<dim>1</dim>
				</port>
			</input>
			<output>
				<port id="2" precision="FP32" names="166,hidden_states.7">
					<dim>-1</dim>
					<dim>320</dim>
					<dim>-1</dim>
					<dim>-1</dim>
				</port>
			</output>
		</layer>
		<layer id="95" name="Constant_514" type="Const" version="opset1">
			<data element_type="i64" shape="4" offset="8865008" size="32" />
			<output>
				<port id="0" precision="I64">
					<dim>4</dim>
				</port>
			</output>
		</layer>
		<layer id="96" name="__module.model.down_blocks.0.attentions.0/aten::permute/Transpose" type="Transpose" version="opset1">
			<input>
				<port id="0" precision="FP32">
					<dim>-1</dim>
					<dim>320</dim>
					<dim>-1</dim>
					<dim>-1</dim>
				</port>
				<port id="1" precision="I64">
					<dim>4</dim>
				</port>
			</input>
			<output>
				<port id="2" precision="FP32" names="169">
					<dim>-1</dim>
					<dim>-1</dim>
					<dim>-1</dim>
					<dim>320</dim>
				</port>
			</output>
		</layer>
		<layer id="97" name="Constant_61314" type="Const" version="opset1">
			<data element_type="i64" shape="3" offset="8865040" size="24" />
			<rt_info>
				<attribute name="precise" version="0" />
			</rt_info>
			<output>
				<port id="0" precision="I64">
					<dim>3</dim>
				</port>
			</output>
		</layer>
		<layer id="98" name="__module.model.down_blocks.0.attentions.0/aten::reshape/Reshape" type="Reshape" version="opset1">
			<data special_zero="true" />
			<input>
				<port id="0" precision="FP32">
					<dim>-1</dim>
					<dim>-1</dim>
					<dim>-1</dim>
					<dim>320</dim>
				</port>
				<port id="1" precision="I64">
					<dim>3</dim>
				</port>
			</input>
			<output>
				<port id="2" precision="FP32" names="173,hidden_states.9">
					<dim>-1</dim>
					<dim>-1</dim>
					<dim>320</dim>
				</port>
			</output>
		</layer>
		<layer id="99" name="__module.model.down_blocks.0.attentions.0.transformer_blocks.0.norm1/aten::layer_norm/Multiply" type="Const" version="opset1">
			<data element_type="i32" shape="1" offset="8865064" size="4" />
			<output>
				<port id="0" precision="I32">
					<dim>1</dim>
				</port>
			</output>
		</layer>
		<layer id="100" name="__module.model.down_blocks.0.attentions.0.transformer_blocks.0.norm1/aten::layer_norm/MVN" type="MVN" version="opset6">
			<data eps="9.9999997473787516e-06" normalize_variance="true" eps_mode="INSIDE_SQRT" />
			<input>
				<port id="0" precision="FP32">
					<dim>-1</dim>
					<dim>-1</dim>
					<dim>320</dim>
				</port>
				<port id="1" precision="I32">
					<dim>1</dim>
				</port>
			</input>
			<output>
				<port id="2" precision="FP32">
					<dim>-1</dim>
					<dim>-1</dim>
					<dim>320</dim>
				</port>
			</output>
		</layer>
		<layer id="101" name="Constant_58348_compressed" type="Const" version="opset1">
			<data element_type="f16" shape="1, 1, 320" offset="8865068" size="640" />
			<output>
				<port id="0" precision="FP16">
					<dim>1</dim>
					<dim>1</dim>
					<dim>320</dim>
				</port>
			</output>
		</layer>
		<layer id="102" name="Constant_58348" type="Convert" version="opset1">
			<data destination_type="f32" />
			<rt_info>
				<attribute name="decompression" version="0" />
			</rt_info>
			<input>
				<port id="0" precision="FP16">
					<dim>1</dim>
					<dim>1</dim>
					<dim>320</dim>
				</port>
			</input>
			<output>
				<port id="1" precision="FP32">
					<dim>1</dim>
					<dim>1</dim>
					<dim>320</dim>
				</port>
			</output>
		</layer>
		<layer id="103" name="__module.model.down_blocks.0.attentions.0.transformer_blocks.0.norm1/aten::layer_norm/Multiply_1" type="Multiply" version="opset1">
			<data auto_broadcast="numpy" />
			<input>
				<port id="0" precision="FP32">
					<dim>-1</dim>
					<dim>-1</dim>
					<dim>320</dim>
				</port>
				<port id="1" precision="FP32">
					<dim>1</dim>
					<dim>1</dim>
					<dim>320</dim>
				</port>
			</input>
			<output>
				<port id="2" precision="FP32">
					<dim>-1</dim>
					<dim>-1</dim>
					<dim>320</dim>
				</port>
			</output>
		</layer>
		<layer id="104" name="Constant_58349_compressed" type="Const" version="opset1">
			<data element_type="f16" shape="1, 1, 320" offset="8865708" size="640" />
			<output>
				<port id="0" precision="FP16">
					<dim>1</dim>
					<dim>1</dim>
					<dim>320</dim>
				</port>
			</output>
		</layer>
		<layer id="105" name="Constant_58349" type="Convert" version="opset1">
			<data destination_type="f32" />
			<rt_info>
				<attribute name="decompression" version="0" />
			</rt_info>
			<input>
				<port id="0" precision="FP16">
					<dim>1</dim>
					<dim>1</dim>
					<dim>320</dim>
				</port>
			</input>
			<output>
				<port id="1" precision="FP32">
					<dim>1</dim>
					<dim>1</dim>
					<dim>320</dim>
				</port>
			</output>
		</layer>
		<layer id="106" name="__module.model.down_blocks.0.attentions.0.transformer_blocks.0.norm1/aten::layer_norm/Add" type="Add" version="opset1">
			<data auto_broadcast="numpy" />
			<input>
				<port id="0" precision="FP32">
					<dim>-1</dim>
					<dim>-1</dim>
					<dim>320</dim>
				</port>
				<port id="1" precision="FP32">
					<dim>1</dim>
					<dim>1</dim>
					<dim>320</dim>
				</port>
			</input>
			<output>
				<port id="2" precision="FP32" names="183,hidden_states.11">
					<dim>-1</dim>
					<dim>-1</dim>
					<dim>320</dim>
				</port>
			</output>
		</layer>
		<layer id="107" name="self.model.down_blocks.0.attentions.0.transformer_blocks.0.attn1.to_q.weight_compressed" type="Const" version="opset1">
			<data element_type="f16" shape="320, 320" offset="8866348" size="204800" />
			<output>
				<port id="0" precision="FP16" names="self.model.down_blocks.0.attentions.0.transformer_blocks.0.attn1.to_q.weight">
					<dim>320</dim>
					<dim>320</dim>
				</port>
			</output>
		</layer>
		<layer id="108" name="self.model.down_blocks.0.attentions.0.transformer_blocks.0.attn1.to_q.weight" type="Convert" version="opset1">
			<data destination_type="f32" />
			<rt_info>
				<attribute name="decompression" version="0" />
			</rt_info>
			<input>
				<port id="0" precision="FP16">
					<dim>320</dim>
					<dim>320</dim>
				</port>
			</input>
			<output>
				<port id="1" precision="FP32">
					<dim>320</dim>
					<dim>320</dim>
				</port>
			</output>
		</layer>
		<layer id="109" name="__module.model.down_blocks.0.attentions.0.transformer_blocks.0.attn1.to_q/aten::linear/MatMul" type="MatMul" version="opset1">
			<data transpose_a="false" transpose_b="true" />
			<input>
				<port id="0" precision="FP32">
					<dim>-1</dim>
					<dim>-1</dim>
					<dim>320</dim>
				</port>
				<port id="1" precision="FP32">
					<dim>320</dim>
					<dim>320</dim>
				</port>
			</input>
			<output>
				<port id="2" precision="FP32" names="191,query.1">
					<dim>-1</dim>
					<dim>-1</dim>
					<dim>320</dim>
				</port>
			</output>
		</layer>
		<layer id="110" name="Constant_61315" type="Const" version="opset1">
			<data element_type="i64" shape="4" offset="9071148" size="32" />
			<rt_info>
				<attribute name="precise" version="0" />
			</rt_info>
			<output>
				<port id="0" precision="I64">
					<dim>4</dim>
				</port>
			</output>
		</layer>
		<layer id="111" name="__module.model.down_blocks.0.attentions.0.transformer_blocks.0.attn1/aten::view/Reshape" type="Reshape" version="opset1">
			<data special_zero="true" />
			<input>
				<port id="0" precision="FP32">
					<dim>-1</dim>
					<dim>-1</dim>
					<dim>320</dim>
				</port>
				<port id="1" precision="I64">
					<dim>4</dim>
				</port>
			</input>
			<output>
				<port id="2" precision="FP32" names="203">
					<dim>-1</dim>
					<dim>-1</dim>
					<dim>8</dim>
					<dim>40</dim>
				</port>
			</output>
		</layer>
		<layer id="112" name="__module.model.down_blocks.0.attentions.0.transformer_blocks.0.attn1/aten::transpose/Constant" type="Const" version="opset1">
			<data element_type="i32" shape="4" offset="9071180" size="16" />
			<output>
				<port id="0" precision="I32">
					<dim>4</dim>
				</port>
			</output>
		</layer>
		<layer id="113" name="__module.model.down_blocks.0.attentions.0.transformer_blocks.0.attn1/aten::transpose/Transpose" type="Transpose" version="opset1">
			<input>
				<port id="0" precision="FP32">
					<dim>-1</dim>
					<dim>-1</dim>
					<dim>8</dim>
					<dim>40</dim>
				</port>
				<port id="1" precision="I32">
					<dim>4</dim>
				</port>
			</input>
			<output>
				<port id="2" precision="FP32" names="204,query.3">
					<dim>-1</dim>
					<dim>8</dim>
					<dim>-1</dim>
					<dim>40</dim>
				</port>
			</output>
		</layer>
		<layer id="114" name="self.model.down_blocks.0.attentions.0.transformer_blocks.0.attn1.to_k.weight_compressed" type="Const" version="opset1">
			<data element_type="f16" shape="320, 320" offset="9071196" size="204800" />
			<output>
				<port id="0" precision="FP16" names="self.model.down_blocks.0.attentions.0.transformer_blocks.0.attn1.to_k.weight">
					<dim>320</dim>
					<dim>320</dim>
				</port>
			</output>
		</layer>
		<layer id="115" name="self.model.down_blocks.0.attentions.0.transformer_blocks.0.attn1.to_k.weight" type="Convert" version="opset1">
			<data destination_type="f32" />
			<rt_info>
				<attribute name="decompression" version="0" />
			</rt_info>
			<input>
				<port id="0" precision="FP16">
					<dim>320</dim>
					<dim>320</dim>
				</port>
			</input>
			<output>
				<port id="1" precision="FP32">
					<dim>320</dim>
					<dim>320</dim>
				</port>
			</output>
		</layer>
		<layer id="116" name="__module.model.down_blocks.0.attentions.0.transformer_blocks.0.attn1.to_k/aten::linear/MatMul" type="MatMul" version="opset1">
			<data transpose_a="false" transpose_b="true" />
			<input>
				<port id="0" precision="FP32">
					<dim>-1</dim>
					<dim>-1</dim>
					<dim>320</dim>
				</port>
				<port id="1" precision="FP32">
					<dim>320</dim>
					<dim>320</dim>
				</port>
			</input>
			<output>
				<port id="2" precision="FP32" names="193,key.1">
					<dim>-1</dim>
					<dim>-1</dim>
					<dim>320</dim>
				</port>
			</output>
		</layer>
		<layer id="117" name="Constant_61316" type="Const" version="opset1">
			<data element_type="i64" shape="4" offset="9071148" size="32" />
			<rt_info>
				<attribute name="precise" version="0" />
			</rt_info>
			<output>
				<port id="0" precision="I64">
					<dim>4</dim>
				</port>
			</output>
		</layer>
		<layer id="118" name="__module.model.down_blocks.0.attentions.0.transformer_blocks.0.attn1/aten::view/Reshape_1" type="Reshape" version="opset1">
			<data special_zero="true" />
			<input>
				<port id="0" precision="FP32">
					<dim>-1</dim>
					<dim>-1</dim>
					<dim>320</dim>
				</port>
				<port id="1" precision="I64">
					<dim>4</dim>
				</port>
			</input>
			<output>
				<port id="2" precision="FP32" names="206">
					<dim>-1</dim>
					<dim>-1</dim>
					<dim>8</dim>
					<dim>40</dim>
				</port>
			</output>
		</layer>
		<layer id="119" name="__module.model.down_blocks.0.attentions.0.transformer_blocks.0.attn1/aten::transpose/Constant_1" type="Const" version="opset1">
			<data element_type="i32" shape="4" offset="9071180" size="16" />
			<output>
				<port id="0" precision="I32">
					<dim>4</dim>
				</port>
			</output>
		</layer>
		<layer id="120" name="__module.model.down_blocks.0.attentions.0.transformer_blocks.0.attn1/aten::transpose/Transpose_1" type="Transpose" version="opset1">
			<input>
				<port id="0" precision="FP32">
					<dim>-1</dim>
					<dim>-1</dim>
					<dim>8</dim>
					<dim>40</dim>
				</port>
				<port id="1" precision="I32">
					<dim>4</dim>
				</port>
			</input>
			<output>
				<port id="2" precision="FP32" names="207,key.3">
					<dim>-1</dim>
					<dim>8</dim>
					<dim>-1</dim>
					<dim>40</dim>
				</port>
			</output>
		</layer>
		<layer id="121" name="self.model.down_blocks.0.attentions.0.transformer_blocks.0.attn1.to_v.weight_compressed" type="Const" version="opset1">
			<data element_type="f16" shape="320, 320" offset="9275996" size="204800" />
			<output>
				<port id="0" precision="FP16" names="self.model.down_blocks.0.attentions.0.transformer_blocks.0.attn1.to_v.weight">
					<dim>320</dim>
					<dim>320</dim>
				</port>
			</output>
		</layer>
		<layer id="122" name="self.model.down_blocks.0.attentions.0.transformer_blocks.0.attn1.to_v.weight" type="Convert" version="opset1">
			<data destination_type="f32" />
			<rt_info>
				<attribute name="decompression" version="0" />
			</rt_info>
			<input>
				<port id="0" precision="FP16">
					<dim>320</dim>
					<dim>320</dim>
				</port>
			</input>
			<output>
				<port id="1" precision="FP32">
					<dim>320</dim>
					<dim>320</dim>
				</port>
			</output>
		</layer>
		<layer id="123" name="__module.model.down_blocks.0.attentions.0.transformer_blocks.0.attn1.to_v/aten::linear/MatMul" type="MatMul" version="opset1">
			<data transpose_a="false" transpose_b="true" />
			<input>
				<port id="0" precision="FP32">
					<dim>-1</dim>
					<dim>-1</dim>
					<dim>320</dim>
				</port>
				<port id="1" precision="FP32">
					<dim>320</dim>
					<dim>320</dim>
				</port>
			</input>
			<output>
				<port id="2" precision="FP32" names="195,value.1">
					<dim>-1</dim>
					<dim>-1</dim>
					<dim>320</dim>
				</port>
			</output>
		</layer>
		<layer id="124" name="Constant_61317" type="Const" version="opset1">
			<data element_type="i64" shape="4" offset="9071148" size="32" />
			<rt_info>
				<attribute name="precise" version="0" />
			</rt_info>
			<output>
				<port id="0" precision="I64">
					<dim>4</dim>
				</port>
			</output>
		</layer>
		<layer id="125" name="__module.model.down_blocks.0.attentions.0.transformer_blocks.0.attn1/aten::view/Reshape_2" type="Reshape" version="opset1">
			<data special_zero="true" />
			<input>
				<port id="0" precision="FP32">
					<dim>-1</dim>
					<dim>-1</dim>
					<dim>320</dim>
				</port>
				<port id="1" precision="I64">
					<dim>4</dim>
				</port>
			</input>
			<output>
				<port id="2" precision="FP32" names="209">
					<dim>-1</dim>
					<dim>-1</dim>
					<dim>8</dim>
					<dim>40</dim>
				</port>
			</output>
		</layer>
		<layer id="126" name="__module.model.down_blocks.0.attentions.0.transformer_blocks.0.attn1/aten::transpose/Constant_2" type="Const" version="opset1">
			<data element_type="i32" shape="4" offset="9071180" size="16" />
			<output>
				<port id="0" precision="I32">
					<dim>4</dim>
				</port>
			</output>
		</layer>
		<layer id="127" name="__module.model.down_blocks.0.attentions.0.transformer_blocks.0.attn1/aten::transpose/Transpose_2" type="Transpose" version="opset1">
			<input>
				<port id="0" precision="FP32">
					<dim>-1</dim>
					<dim>-1</dim>
					<dim>8</dim>
					<dim>40</dim>
				</port>
				<port id="1" precision="I32">
					<dim>4</dim>
				</port>
			</input>
			<output>
				<port id="2" precision="FP32" names="210,value.3">
					<dim>-1</dim>
					<dim>8</dim>
					<dim>-1</dim>
					<dim>40</dim>
				</port>
			</output>
		</layer>
		<layer id="128" name="__module.model.down_blocks.0.attentions.0.transformer_blocks.0.attn1/aten::scaled_dot_product_attention/ScaledDotProductAttention" type="ScaledDotProductAttention" version="opset13">
			<data causal="false" />
			<input>
				<port id="0" precision="FP32">
					<dim>-1</dim>
					<dim>8</dim>
					<dim>-1</dim>
					<dim>40</dim>
				</port>
				<port id="1" precision="FP32">
					<dim>-1</dim>
					<dim>8</dim>
					<dim>-1</dim>
					<dim>40</dim>
				</port>
				<port id="2" precision="FP32">
					<dim>-1</dim>
					<dim>8</dim>
					<dim>-1</dim>
					<dim>40</dim>
				</port>
			</input>
			<output>
				<port id="3" precision="FP32" names="211,hidden_states.13">
					<dim>-1</dim>
					<dim>8</dim>
					<dim>-1</dim>
					<dim>40</dim>
				</port>
			</output>
		</layer>
		<layer id="129" name="__module.model.down_blocks.0.attentions.0.transformer_blocks.0.attn1/aten::transpose/Constant_3" type="Const" version="opset1">
			<data element_type="i32" shape="4" offset="9071180" size="16" />
			<output>
				<port id="0" precision="I32">
					<dim>4</dim>
				</port>
			</output>
		</layer>
		<layer id="130" name="__module.model.down_blocks.0.attentions.0.transformer_blocks.0.attn1/aten::transpose/Transpose_3" type="Transpose" version="opset1">
			<input>
				<port id="0" precision="FP32">
					<dim>-1</dim>
					<dim>8</dim>
					<dim>-1</dim>
					<dim>40</dim>
				</port>
				<port id="1" precision="I32">
					<dim>4</dim>
				</port>
			</input>
			<output>
				<port id="2" precision="FP32" names="212">
					<dim>-1</dim>
					<dim>-1</dim>
					<dim>8</dim>
					<dim>40</dim>
				</port>
			</output>
		</layer>
		<layer id="131" name="Constant_61318" type="Const" version="opset1">
			<data element_type="i64" shape="3" offset="9480796" size="24" />
			<rt_info>
				<attribute name="precise" version="0" />
			</rt_info>
			<output>
				<port id="0" precision="I64">
					<dim>3</dim>
				</port>
			</output>
		</layer>
		<layer id="132" name="__module.model.down_blocks.0.attentions.0.transformer_blocks.0.attn1/aten::reshape/Reshape" type="Reshape" version="opset1">
			<data special_zero="true" />
			<input>
				<port id="0" precision="FP32">
					<dim>-1</dim>
					<dim>-1</dim>
					<dim>8</dim>
					<dim>40</dim>
				</port>
				<port id="1" precision="I64">
					<dim>3</dim>
				</port>
			</input>
			<output>
				<port id="2" precision="FP32" names="216,217,hidden_states.15,input.27">
					<dim>-1</dim>
					<dim>-1</dim>
					<dim>320</dim>
				</port>
			</output>
		</layer>
		<layer id="133" name="self.model.down_blocks.0.attentions.0.transformer_blocks.0.attn1.to_out.0.weight_compressed" type="Const" version="opset1">
			<data element_type="f16" shape="320, 320" offset="9480820" size="204800" />
			<output>
				<port id="0" precision="FP16" names="self.model.down_blocks.0.attentions.0.transformer_blocks.0.attn1.to_out.0.weight">
					<dim>320</dim>
					<dim>320</dim>
				</port>
			</output>
		</layer>
		<layer id="134" name="self.model.down_blocks.0.attentions.0.transformer_blocks.0.attn1.to_out.0.weight" type="Convert" version="opset1">
			<data destination_type="f32" />
			<rt_info>
				<attribute name="decompression" version="0" />
			</rt_info>
			<input>
				<port id="0" precision="FP16">
					<dim>320</dim>
					<dim>320</dim>
				</port>
			</input>
			<output>
				<port id="1" precision="FP32">
					<dim>320</dim>
					<dim>320</dim>
				</port>
			</output>
		</layer>
		<layer id="135" name="__module.model.down_blocks.0.attentions.0.transformer_blocks.0.attn1.to_out.0/aten::linear/MatMul" type="MatMul" version="opset1">
			<data transpose_a="false" transpose_b="true" />
			<input>
				<port id="0" precision="FP32">
					<dim>-1</dim>
					<dim>-1</dim>
					<dim>320</dim>
				</port>
				<port id="1" precision="FP32">
					<dim>320</dim>
					<dim>320</dim>
				</port>
			</input>
			<output>
				<port id="2" precision="FP32">
					<dim>-1</dim>
					<dim>-1</dim>
					<dim>320</dim>
				</port>
			</output>
		</layer>
		<layer id="136" name="Constant_58350_compressed" type="Const" version="opset1">
			<data element_type="f16" shape="1, 1, 320" offset="9685620" size="640" />
			<output>
				<port id="0" precision="FP16">
					<dim>1</dim>
					<dim>1</dim>
					<dim>320</dim>
				</port>
			</output>
		</layer>
		<layer id="137" name="Constant_58350" type="Convert" version="opset1">
			<data destination_type="f32" />
			<rt_info>
				<attribute name="decompression" version="0" />
			</rt_info>
			<input>
				<port id="0" precision="FP16">
					<dim>1</dim>
					<dim>1</dim>
					<dim>320</dim>
				</port>
			</input>
			<output>
				<port id="1" precision="FP32">
					<dim>1</dim>
					<dim>1</dim>
					<dim>320</dim>
				</port>
			</output>
		</layer>
		<layer id="138" name="__module.model.down_blocks.0.attentions.0.transformer_blocks.0.attn1.to_out.0/aten::linear/Add" type="Add" version="opset1">
			<data auto_broadcast="numpy" />
			<input>
				<port id="0" precision="FP32">
					<dim>-1</dim>
					<dim>-1</dim>
					<dim>320</dim>
				</port>
				<port id="1" precision="FP32">
					<dim>1</dim>
					<dim>1</dim>
					<dim>320</dim>
				</port>
			</input>
			<output>
				<port id="2" precision="FP32" names="220,222,attn_output.1,input.29">
					<dim>-1</dim>
					<dim>-1</dim>
					<dim>320</dim>
				</port>
			</output>
		</layer>
		<layer id="139" name="__module.model.down_blocks.0.attentions.0.transformer_blocks.0/aten::add/Add" type="Add" version="opset1">
			<data auto_broadcast="numpy" />
			<input>
				<port id="0" precision="FP32">
					<dim>-1</dim>
					<dim>-1</dim>
					<dim>320</dim>
				</port>
				<port id="1" precision="FP32">
					<dim>-1</dim>
					<dim>-1</dim>
					<dim>320</dim>
				</port>
			</input>
			<output>
				<port id="2" precision="FP32" names="223,input.31">
					<dim>-1</dim>
					<dim>-1</dim>
					<dim>320</dim>
				</port>
			</output>
		</layer>
		<layer id="140" name="__module.model.down_blocks.0.attentions.0.transformer_blocks.0.norm2/aten::layer_norm/Multiply" type="Const" version="opset1">
			<data element_type="i32" shape="1" offset="8865064" size="4" />
			<output>
				<port id="0" precision="I32">
					<dim>1</dim>
				</port>
			</output>
		</layer>
		<layer id="141" name="__module.model.down_blocks.0.attentions.0.transformer_blocks.0.norm2/aten::layer_norm/MVN" type="MVN" version="opset6">
			<data eps="9.9999997473787516e-06" normalize_variance="true" eps_mode="INSIDE_SQRT" />
			<input>
				<port id="0" precision="FP32">
					<dim>-1</dim>
					<dim>-1</dim>
					<dim>320</dim>
				</port>
				<port id="1" precision="I32">
					<dim>1</dim>
				</port>
			</input>
			<output>
				<port id="2" precision="FP32">
					<dim>-1</dim>
					<dim>-1</dim>
					<dim>320</dim>
				</port>
			</output>
		</layer>
		<layer id="142" name="Constant_58351_compressed" type="Const" version="opset1">
			<data element_type="f16" shape="1, 1, 320" offset="9686260" size="640" />
			<output>
				<port id="0" precision="FP16">
					<dim>1</dim>
					<dim>1</dim>
					<dim>320</dim>
				</port>
			</output>
		</layer>
		<layer id="143" name="Constant_58351" type="Convert" version="opset1">
			<data destination_type="f32" />
			<rt_info>
				<attribute name="decompression" version="0" />
			</rt_info>
			<input>
				<port id="0" precision="FP16">
					<dim>1</dim>
					<dim>1</dim>
					<dim>320</dim>
				</port>
			</input>
			<output>
				<port id="1" precision="FP32">
					<dim>1</dim>
					<dim>1</dim>
					<dim>320</dim>
				</port>
			</output>
		</layer>
		<layer id="144" name="__module.model.down_blocks.0.attentions.0.transformer_blocks.0.norm2/aten::layer_norm/Multiply_1" type="Multiply" version="opset1">
			<data auto_broadcast="numpy" />
			<input>
				<port id="0" precision="FP32">
					<dim>-1</dim>
					<dim>-1</dim>
					<dim>320</dim>
				</port>
				<port id="1" precision="FP32">
					<dim>1</dim>
					<dim>1</dim>
					<dim>320</dim>
				</port>
			</input>
			<output>
				<port id="2" precision="FP32">
					<dim>-1</dim>
					<dim>-1</dim>
					<dim>320</dim>
				</port>
			</output>
		</layer>
		<layer id="145" name="Constant_58352_compressed" type="Const" version="opset1">
			<data element_type="f16" shape="1, 1, 320" offset="9686900" size="640" />
			<output>
				<port id="0" precision="FP16">
					<dim>1</dim>
					<dim>1</dim>
					<dim>320</dim>
				</port>
			</output>
		</layer>
		<layer id="146" name="Constant_58352" type="Convert" version="opset1">
			<data destination_type="f32" />
			<rt_info>
				<attribute name="decompression" version="0" />
			</rt_info>
			<input>
				<port id="0" precision="FP16">
					<dim>1</dim>
					<dim>1</dim>
					<dim>320</dim>
				</port>
			</input>
			<output>
				<port id="1" precision="FP32">
					<dim>1</dim>
					<dim>1</dim>
					<dim>320</dim>
				</port>
			</output>
		</layer>
		<layer id="147" name="__module.model.down_blocks.0.attentions.0.transformer_blocks.0.norm2/aten::layer_norm/Add" type="Add" version="opset1">
			<data auto_broadcast="numpy" />
			<input>
				<port id="0" precision="FP32">
					<dim>-1</dim>
					<dim>-1</dim>
					<dim>320</dim>
				</port>
				<port id="1" precision="FP32">
					<dim>1</dim>
					<dim>1</dim>
					<dim>320</dim>
				</port>
			</input>
			<output>
				<port id="2" precision="FP32" names="227,input.33">
					<dim>-1</dim>
					<dim>-1</dim>
					<dim>320</dim>
				</port>
			</output>
		</layer>
		<layer id="148" name="self.model.down_blocks.0.attentions.0.transformer_blocks.0.attn2.to_q.weight_compressed" type="Const" version="opset1">
			<data element_type="f16" shape="320, 320" offset="9687540" size="204800" />
			<output>
				<port id="0" precision="FP16" names="self.model.down_blocks.0.attentions.0.transformer_blocks.0.attn2.to_q.weight">
					<dim>320</dim>
					<dim>320</dim>
				</port>
			</output>
		</layer>
		<layer id="149" name="self.model.down_blocks.0.attentions.0.transformer_blocks.0.attn2.to_q.weight" type="Convert" version="opset1">
			<data destination_type="f32" />
			<rt_info>
				<attribute name="decompression" version="0" />
			</rt_info>
			<input>
				<port id="0" precision="FP16">
					<dim>320</dim>
					<dim>320</dim>
				</port>
			</input>
			<output>
				<port id="1" precision="FP32">
					<dim>320</dim>
					<dim>320</dim>
				</port>
			</output>
		</layer>
		<layer id="150" name="__module.model.down_blocks.0.attentions.0.transformer_blocks.0.attn2.to_q/aten::linear/MatMul" type="MatMul" version="opset1">
			<data transpose_a="false" transpose_b="true" />
			<input>
				<port id="0" precision="FP32">
					<dim>-1</dim>
					<dim>-1</dim>
					<dim>320</dim>
				</port>
				<port id="1" precision="FP32">
					<dim>320</dim>
					<dim>320</dim>
				</port>
			</input>
			<output>
				<port id="2" precision="FP32" names="235,query.5">
					<dim>-1</dim>
					<dim>-1</dim>
					<dim>320</dim>
				</port>
			</output>
		</layer>
		<layer id="151" name="ShapeOf_60904" type="ShapeOf" version="opset3">
			<data output_type="i64" />
			<input>
				<port id="0" precision="FP32">
					<dim>-1</dim>
					<dim>-1</dim>
					<dim>-1</dim>
				</port>
			</input>
			<output>
				<port id="1" precision="I64">
					<dim>3</dim>
				</port>
			</output>
		</layer>
		<layer id="152" name="Constant_60905" type="Const" version="opset1">
			<data element_type="i64" shape="1" offset="1891840" size="8" />
			<rt_info>
				<attribute name="precise" version="0" />
			</rt_info>
			<output>
				<port id="0" precision="I64">
					<dim>1</dim>
				</port>
			</output>
		</layer>
		<layer id="153" name="Constant_60906" type="Const" version="opset1">
			<data element_type="i64" shape="" offset="1891840" size="8" />
			<rt_info>
				<attribute name="precise" version="0" />
			</rt_info>
			<output>
				<port id="0" precision="I64" />
			</output>
		</layer>
		<layer id="154" name="Gather_60907" type="Gather" version="opset8">
			<data batch_dims="0" />
			<input>
				<port id="0" precision="I64">
					<dim>3</dim>
				</port>
				<port id="1" precision="I64">
					<dim>1</dim>
				</port>
				<port id="2" precision="I64" />
			</input>
			<output>
				<port id="3" precision="I64" names="1085,1283,1584,2010,2218,233,2426,2658,2866,3074,3304,3512,3720,431,659,857">
					<dim>1</dim>
				</port>
			</output>
		</layer>
		<layer id="155" name="Constant_1135" type="Const" version="opset1">
			<data element_type="i64" shape="1" offset="9892340" size="8" />
			<rt_info>
				<attribute name="precise" version="0" />
			</rt_info>
			<output>
				<port id="0" precision="I64">
					<dim>1</dim>
				</port>
			</output>
		</layer>
		<layer id="156" name="Constant_1136" type="Const" version="opset1">
			<data element_type="i64" shape="1" offset="9892348" size="8" />
			<rt_info>
				<attribute name="precise" version="0" />
			</rt_info>
			<output>
				<port id="0" precision="I64">
					<dim>1</dim>
				</port>
			</output>
		</layer>
		<layer id="157" name="Constant_1179" type="Const" version="opset1">
			<data element_type="i64" shape="1" offset="9892356" size="8" />
			<rt_info>
				<attribute name="precise" version="0" />
			</rt_info>
			<output>
				<port id="0" precision="I64">
					<dim>1</dim>
				</port>
			</output>
		</layer>
		<layer id="158" name="__module.model.down_blocks.0.attentions.0.transformer_blocks.0.attn2/prim::ListConstruct/SequenceMark" type="Concat" version="opset1">
			<data axis="0" />
			<input>
				<port id="0" precision="I64">
					<dim>1</dim>
				</port>
				<port id="1" precision="I64">
					<dim>1</dim>
				</port>
				<port id="2" precision="I64">
					<dim>1</dim>
				</port>
				<port id="3" precision="I64">
					<dim>1</dim>
				</port>
			</input>
			<output>
				<port id="4" precision="I64">
					<dim>4</dim>
				</port>
			</output>
		</layer>
		<layer id="159" name="__module.model.down_blocks.0.attentions.0.transformer_blocks.0.attn2/aten::view/Reshape" type="Reshape" version="opset1">
			<data special_zero="false" />
			<input>
				<port id="0" precision="FP32">
					<dim>-1</dim>
					<dim>-1</dim>
					<dim>320</dim>
				</port>
				<port id="1" precision="I64">
					<dim>4</dim>
				</port>
			</input>
			<output>
				<port id="2" precision="FP32" names="247">
					<dim>-1</dim>
					<dim>-1</dim>
					<dim>8</dim>
					<dim>40</dim>
				</port>
			</output>
		</layer>
		<layer id="160" name="__module.model.down_blocks.0.attentions.0.transformer_blocks.0.attn2/aten::transpose/Constant" type="Const" version="opset1">
			<data element_type="i32" shape="4" offset="9071180" size="16" />
			<output>
				<port id="0" precision="I32">
					<dim>4</dim>
				</port>
			</output>
		</layer>
		<layer id="161" name="__module.model.down_blocks.0.attentions.0.transformer_blocks.0.attn2/aten::transpose/Transpose" type="Transpose" version="opset1">
			<input>
				<port id="0" precision="FP32">
					<dim>-1</dim>
					<dim>-1</dim>
					<dim>8</dim>
					<dim>40</dim>
				</port>
				<port id="1" precision="I32">
					<dim>4</dim>
				</port>
			</input>
			<output>
				<port id="2" precision="FP32" names="248,query.7">
					<dim>-1</dim>
					<dim>8</dim>
					<dim>-1</dim>
					<dim>40</dim>
				</port>
			</output>
		</layer>
		<layer id="162" name="self.model.down_blocks.0.attentions.0.transformer_blocks.0.attn2.to_k.weight_compressed" type="Const" version="opset1">
			<data element_type="f16" shape="320, 384" offset="9892364" size="245760" />
			<output>
				<port id="0" precision="FP16" names="self.model.down_blocks.0.attentions.0.transformer_blocks.0.attn2.to_k.weight">
					<dim>320</dim>
					<dim>384</dim>
				</port>
			</output>
		</layer>
		<layer id="163" name="self.model.down_blocks.0.attentions.0.transformer_blocks.0.attn2.to_k.weight" type="Convert" version="opset1">
			<data destination_type="f32" />
			<rt_info>
				<attribute name="decompression" version="0" />
			</rt_info>
			<input>
				<port id="0" precision="FP16">
					<dim>320</dim>
					<dim>384</dim>
				</port>
			</input>
			<output>
				<port id="1" precision="FP32">
					<dim>320</dim>
					<dim>384</dim>
				</port>
			</output>
		</layer>
		<layer id="164" name="__module.model.down_blocks.0.attentions.0.transformer_blocks.0.attn2.to_k/aten::linear/MatMul" type="MatMul" version="opset1">
			<data transpose_a="false" transpose_b="true" />
			<input>
				<port id="0" precision="FP32">
					<dim>-1</dim>
					<dim>-1</dim>
					<dim>-1</dim>
				</port>
				<port id="1" precision="FP32">
					<dim>320</dim>
					<dim>384</dim>
				</port>
			</input>
			<output>
				<port id="2" precision="FP32" names="237,key.5">
					<dim>-1</dim>
					<dim>-1</dim>
					<dim>320</dim>
				</port>
			</output>
		</layer>
		<layer id="165" name="Constant_61319" type="Const" version="opset1">
			<data element_type="i64" shape="4" offset="9071148" size="32" />
			<rt_info>
				<attribute name="precise" version="0" />
			</rt_info>
			<output>
				<port id="0" precision="I64">
					<dim>4</dim>
				</port>
			</output>
		</layer>
		<layer id="166" name="__module.model.down_blocks.0.attentions.0.transformer_blocks.0.attn2/aten::view/Reshape_1" type="Reshape" version="opset1">
			<data special_zero="true" />
			<input>
				<port id="0" precision="FP32">
					<dim>-1</dim>
					<dim>-1</dim>
					<dim>320</dim>
				</port>
				<port id="1" precision="I64">
					<dim>4</dim>
				</port>
			</input>
			<output>
				<port id="2" precision="FP32" names="250">
					<dim>-1</dim>
					<dim>-1</dim>
					<dim>8</dim>
					<dim>40</dim>
				</port>
			</output>
		</layer>
		<layer id="167" name="__module.model.down_blocks.0.attentions.0.transformer_blocks.0.attn2/aten::transpose/Constant_1" type="Const" version="opset1">
			<data element_type="i32" shape="4" offset="9071180" size="16" />
			<output>
				<port id="0" precision="I32">
					<dim>4</dim>
				</port>
			</output>
		</layer>
		<layer id="168" name="__module.model.down_blocks.0.attentions.0.transformer_blocks.0.attn2/aten::transpose/Transpose_1" type="Transpose" version="opset1">
			<input>
				<port id="0" precision="FP32">
					<dim>-1</dim>
					<dim>-1</dim>
					<dim>8</dim>
					<dim>40</dim>
				</port>
				<port id="1" precision="I32">
					<dim>4</dim>
				</port>
			</input>
			<output>
				<port id="2" precision="FP32" names="251,key.7">
					<dim>-1</dim>
					<dim>8</dim>
					<dim>-1</dim>
					<dim>40</dim>
				</port>
			</output>
		</layer>
		<layer id="169" name="self.model.down_blocks.0.attentions.0.transformer_blocks.0.attn2.to_v.weight_compressed" type="Const" version="opset1">
			<data element_type="f16" shape="320, 384" offset="10138124" size="245760" />
			<output>
				<port id="0" precision="FP16" names="self.model.down_blocks.0.attentions.0.transformer_blocks.0.attn2.to_v.weight">
					<dim>320</dim>
					<dim>384</dim>
				</port>
			</output>
		</layer>
		<layer id="170" name="self.model.down_blocks.0.attentions.0.transformer_blocks.0.attn2.to_v.weight" type="Convert" version="opset1">
			<data destination_type="f32" />
			<rt_info>
				<attribute name="decompression" version="0" />
			</rt_info>
			<input>
				<port id="0" precision="FP16">
					<dim>320</dim>
					<dim>384</dim>
				</port>
			</input>
			<output>
				<port id="1" precision="FP32">
					<dim>320</dim>
					<dim>384</dim>
				</port>
			</output>
		</layer>
		<layer id="171" name="__module.model.down_blocks.0.attentions.0.transformer_blocks.0.attn2.to_v/aten::linear/MatMul" type="MatMul" version="opset1">
			<data transpose_a="false" transpose_b="true" />
			<input>
				<port id="0" precision="FP32">
					<dim>-1</dim>
					<dim>-1</dim>
					<dim>-1</dim>
				</port>
				<port id="1" precision="FP32">
					<dim>320</dim>
					<dim>384</dim>
				</port>
			</input>
			<output>
				<port id="2" precision="FP32" names="239,value.5">
					<dim>-1</dim>
					<dim>-1</dim>
					<dim>320</dim>
				</port>
			</output>
		</layer>
		<layer id="172" name="Constant_61320" type="Const" version="opset1">
			<data element_type="i64" shape="4" offset="9071148" size="32" />
			<rt_info>
				<attribute name="precise" version="0" />
			</rt_info>
			<output>
				<port id="0" precision="I64">
					<dim>4</dim>
				</port>
			</output>
		</layer>
		<layer id="173" name="__module.model.down_blocks.0.attentions.0.transformer_blocks.0.attn2/aten::view/Reshape_2" type="Reshape" version="opset1">
			<data special_zero="true" />
			<input>
				<port id="0" precision="FP32">
					<dim>-1</dim>
					<dim>-1</dim>
					<dim>320</dim>
				</port>
				<port id="1" precision="I64">
					<dim>4</dim>
				</port>
			</input>
			<output>
				<port id="2" precision="FP32" names="253">
					<dim>-1</dim>
					<dim>-1</dim>
					<dim>8</dim>
					<dim>40</dim>
				</port>
			</output>
		</layer>
		<layer id="174" name="__module.model.down_blocks.0.attentions.0.transformer_blocks.0.attn2/aten::transpose/Constant_2" type="Const" version="opset1">
			<data element_type="i32" shape="4" offset="9071180" size="16" />
			<output>
				<port id="0" precision="I32">
					<dim>4</dim>
				</port>
			</output>
		</layer>
		<layer id="175" name="__module.model.down_blocks.0.attentions.0.transformer_blocks.0.attn2/aten::transpose/Transpose_2" type="Transpose" version="opset1">
			<input>
				<port id="0" precision="FP32">
					<dim>-1</dim>
					<dim>-1</dim>
					<dim>8</dim>
					<dim>40</dim>
				</port>
				<port id="1" precision="I32">
					<dim>4</dim>
				</port>
			</input>
			<output>
				<port id="2" precision="FP32" names="254,value.7">
					<dim>-1</dim>
					<dim>8</dim>
					<dim>-1</dim>
					<dim>40</dim>
				</port>
			</output>
		</layer>
		<layer id="176" name="__module.model.down_blocks.0.attentions.0.transformer_blocks.0.attn2/aten::scaled_dot_product_attention/ScaledDotProductAttention" type="ScaledDotProductAttention" version="opset13">
			<data causal="false" />
			<input>
				<port id="0" precision="FP32">
					<dim>-1</dim>
					<dim>8</dim>
					<dim>-1</dim>
					<dim>40</dim>
				</port>
				<port id="1" precision="FP32">
					<dim>-1</dim>
					<dim>8</dim>
					<dim>-1</dim>
					<dim>40</dim>
				</port>
				<port id="2" precision="FP32">
					<dim>-1</dim>
					<dim>8</dim>
					<dim>-1</dim>
					<dim>40</dim>
				</port>
			</input>
			<output>
				<port id="3" precision="FP32" names="255,hidden_states.19">
					<dim>-1</dim>
					<dim>8</dim>
					<dim>-1</dim>
					<dim>40</dim>
				</port>
			</output>
		</layer>
		<layer id="177" name="__module.model.down_blocks.0.attentions.0.transformer_blocks.0.attn2/aten::transpose/Constant_3" type="Const" version="opset1">
			<data element_type="i32" shape="4" offset="9071180" size="16" />
			<output>
				<port id="0" precision="I32">
					<dim>4</dim>
				</port>
			</output>
		</layer>
		<layer id="178" name="__module.model.down_blocks.0.attentions.0.transformer_blocks.0.attn2/aten::transpose/Transpose_3" type="Transpose" version="opset1">
			<input>
				<port id="0" precision="FP32">
					<dim>-1</dim>
					<dim>8</dim>
					<dim>-1</dim>
					<dim>40</dim>
				</port>
				<port id="1" precision="I32">
					<dim>4</dim>
				</port>
			</input>
			<output>
				<port id="2" precision="FP32" names="256">
					<dim>-1</dim>
					<dim>-1</dim>
					<dim>8</dim>
					<dim>40</dim>
				</port>
			</output>
		</layer>
		<layer id="179" name="Constant_61321" type="Const" version="opset1">
			<data element_type="i64" shape="3" offset="9480796" size="24" />
			<rt_info>
				<attribute name="precise" version="0" />
			</rt_info>
			<output>
				<port id="0" precision="I64">
					<dim>3</dim>
				</port>
			</output>
		</layer>
		<layer id="180" name="__module.model.down_blocks.0.attentions.0.transformer_blocks.0.attn2/aten::reshape/Reshape" type="Reshape" version="opset1">
			<data special_zero="true" />
			<input>
				<port id="0" precision="FP32">
					<dim>-1</dim>
					<dim>-1</dim>
					<dim>8</dim>
					<dim>40</dim>
				</port>
				<port id="1" precision="I64">
					<dim>3</dim>
				</port>
			</input>
			<output>
				<port id="2" precision="FP32" names="260,261,hidden_states.21,input.35">
					<dim>-1</dim>
					<dim>-1</dim>
					<dim>320</dim>
				</port>
			</output>
		</layer>
		<layer id="181" name="self.model.down_blocks.0.attentions.0.transformer_blocks.0.attn2.to_out.0.weight_compressed" type="Const" version="opset1">
			<data element_type="f16" shape="320, 320" offset="10383884" size="204800" />
			<output>
				<port id="0" precision="FP16" names="self.model.down_blocks.0.attentions.0.transformer_blocks.0.attn2.to_out.0.weight">
					<dim>320</dim>
					<dim>320</dim>
				</port>
			</output>
		</layer>
		<layer id="182" name="self.model.down_blocks.0.attentions.0.transformer_blocks.0.attn2.to_out.0.weight" type="Convert" version="opset1">
			<data destination_type="f32" />
			<rt_info>
				<attribute name="decompression" version="0" />
			</rt_info>
			<input>
				<port id="0" precision="FP16">
					<dim>320</dim>
					<dim>320</dim>
				</port>
			</input>
			<output>
				<port id="1" precision="FP32">
					<dim>320</dim>
					<dim>320</dim>
				</port>
			</output>
		</layer>
		<layer id="183" name="__module.model.down_blocks.0.attentions.0.transformer_blocks.0.attn2.to_out.0/aten::linear/MatMul" type="MatMul" version="opset1">
			<data transpose_a="false" transpose_b="true" />
			<input>
				<port id="0" precision="FP32">
					<dim>-1</dim>
					<dim>-1</dim>
					<dim>320</dim>
				</port>
				<port id="1" precision="FP32">
					<dim>320</dim>
					<dim>320</dim>
				</port>
			</input>
			<output>
				<port id="2" precision="FP32">
					<dim>-1</dim>
					<dim>-1</dim>
					<dim>320</dim>
				</port>
			</output>
		</layer>
		<layer id="184" name="Constant_58353_compressed" type="Const" version="opset1">
			<data element_type="f16" shape="1, 1, 320" offset="10588684" size="640" />
			<output>
				<port id="0" precision="FP16">
					<dim>1</dim>
					<dim>1</dim>
					<dim>320</dim>
				</port>
			</output>
		</layer>
		<layer id="185" name="Constant_58353" type="Convert" version="opset1">
			<data destination_type="f32" />
			<rt_info>
				<attribute name="decompression" version="0" />
			</rt_info>
			<input>
				<port id="0" precision="FP16">
					<dim>1</dim>
					<dim>1</dim>
					<dim>320</dim>
				</port>
			</input>
			<output>
				<port id="1" precision="FP32">
					<dim>1</dim>
					<dim>1</dim>
					<dim>320</dim>
				</port>
			</output>
		</layer>
		<layer id="186" name="__module.model.down_blocks.0.attentions.0.transformer_blocks.0.attn2.to_out.0/aten::linear/Add" type="Add" version="opset1">
			<data auto_broadcast="numpy" />
			<input>
				<port id="0" precision="FP32">
					<dim>-1</dim>
					<dim>-1</dim>
					<dim>320</dim>
				</port>
				<port id="1" precision="FP32">
					<dim>1</dim>
					<dim>1</dim>
					<dim>320</dim>
				</port>
			</input>
			<output>
				<port id="2" precision="FP32" names="264,266,attn_output.3,input.37">
					<dim>-1</dim>
					<dim>-1</dim>
					<dim>320</dim>
				</port>
			</output>
		</layer>
		<layer id="187" name="__module.model.down_blocks.0.attentions.0.transformer_blocks.0/aten::add/Add_1" type="Add" version="opset1">
			<data auto_broadcast="numpy" />
			<input>
				<port id="0" precision="FP32">
					<dim>-1</dim>
					<dim>-1</dim>
					<dim>320</dim>
				</port>
				<port id="1" precision="FP32">
					<dim>-1</dim>
					<dim>-1</dim>
					<dim>320</dim>
				</port>
			</input>
			<output>
				<port id="2" precision="FP32" names="267,input.39">
					<dim>-1</dim>
					<dim>-1</dim>
					<dim>320</dim>
				</port>
			</output>
		</layer>
		<layer id="188" name="__module.model.down_blocks.0.attentions.0.transformer_blocks.0.norm3/aten::layer_norm/Multiply" type="Const" version="opset1">
			<data element_type="i32" shape="1" offset="8865064" size="4" />
			<output>
				<port id="0" precision="I32">
					<dim>1</dim>
				</port>
			</output>
		</layer>
		<layer id="189" name="__module.model.down_blocks.0.attentions.0.transformer_blocks.0.norm3/aten::layer_norm/MVN" type="MVN" version="opset6">
			<data eps="9.9999997473787516e-06" normalize_variance="true" eps_mode="INSIDE_SQRT" />
			<input>
				<port id="0" precision="FP32">
					<dim>-1</dim>
					<dim>-1</dim>
					<dim>320</dim>
				</port>
				<port id="1" precision="I32">
					<dim>1</dim>
				</port>
			</input>
			<output>
				<port id="2" precision="FP32">
					<dim>-1</dim>
					<dim>-1</dim>
					<dim>320</dim>
				</port>
			</output>
		</layer>
		<layer id="190" name="Constant_58354_compressed" type="Const" version="opset1">
			<data element_type="f16" shape="1, 1, 320" offset="10589324" size="640" />
			<output>
				<port id="0" precision="FP16">
					<dim>1</dim>
					<dim>1</dim>
					<dim>320</dim>
				</port>
			</output>
		</layer>
		<layer id="191" name="Constant_58354" type="Convert" version="opset1">
			<data destination_type="f32" />
			<rt_info>
				<attribute name="decompression" version="0" />
			</rt_info>
			<input>
				<port id="0" precision="FP16">
					<dim>1</dim>
					<dim>1</dim>
					<dim>320</dim>
				</port>
			</input>
			<output>
				<port id="1" precision="FP32">
					<dim>1</dim>
					<dim>1</dim>
					<dim>320</dim>
				</port>
			</output>
		</layer>
		<layer id="192" name="__module.model.down_blocks.0.attentions.0.transformer_blocks.0.norm3/aten::layer_norm/Multiply_1" type="Multiply" version="opset1">
			<data auto_broadcast="numpy" />
			<input>
				<port id="0" precision="FP32">
					<dim>-1</dim>
					<dim>-1</dim>
					<dim>320</dim>
				</port>
				<port id="1" precision="FP32">
					<dim>1</dim>
					<dim>1</dim>
					<dim>320</dim>
				</port>
			</input>
			<output>
				<port id="2" precision="FP32">
					<dim>-1</dim>
					<dim>-1</dim>
					<dim>320</dim>
				</port>
			</output>
		</layer>
		<layer id="193" name="Constant_58355_compressed" type="Const" version="opset1">
			<data element_type="f16" shape="1, 1, 320" offset="10589964" size="640" />
			<output>
				<port id="0" precision="FP16">
					<dim>1</dim>
					<dim>1</dim>
					<dim>320</dim>
				</port>
			</output>
		</layer>
		<layer id="194" name="Constant_58355" type="Convert" version="opset1">
			<data destination_type="f32" />
			<rt_info>
				<attribute name="decompression" version="0" />
			</rt_info>
			<input>
				<port id="0" precision="FP16">
					<dim>1</dim>
					<dim>1</dim>
					<dim>320</dim>
				</port>
			</input>
			<output>
				<port id="1" precision="FP32">
					<dim>1</dim>
					<dim>1</dim>
					<dim>320</dim>
				</port>
			</output>
		</layer>
		<layer id="195" name="__module.model.down_blocks.0.attentions.0.transformer_blocks.0.norm3/aten::layer_norm/Add" type="Add" version="opset1">
			<data auto_broadcast="numpy" />
			<input>
				<port id="0" precision="FP32">
					<dim>-1</dim>
					<dim>-1</dim>
					<dim>320</dim>
				</port>
				<port id="1" precision="FP32">
					<dim>1</dim>
					<dim>1</dim>
					<dim>320</dim>
				</port>
			</input>
			<output>
				<port id="2" precision="FP32" names="271,input.41">
					<dim>-1</dim>
					<dim>-1</dim>
					<dim>320</dim>
				</port>
			</output>
		</layer>
		<layer id="196" name="self.model.down_blocks.0.attentions.0.transformer_blocks.0.ff.net.0.proj.weight_compressed" type="Const" version="opset1">
			<data element_type="f16" shape="2560, 320" offset="10590604" size="1638400" />
			<output>
				<port id="0" precision="FP16" names="self.model.down_blocks.0.attentions.0.transformer_blocks.0.ff.net.0.proj.weight">
					<dim>2560</dim>
					<dim>320</dim>
				</port>
			</output>
		</layer>
		<layer id="197" name="self.model.down_blocks.0.attentions.0.transformer_blocks.0.ff.net.0.proj.weight" type="Convert" version="opset1">
			<data destination_type="f32" />
			<rt_info>
				<attribute name="decompression" version="0" />
			</rt_info>
			<input>
				<port id="0" precision="FP16">
					<dim>2560</dim>
					<dim>320</dim>
				</port>
			</input>
			<output>
				<port id="1" precision="FP32">
					<dim>2560</dim>
					<dim>320</dim>
				</port>
			</output>
		</layer>
		<layer id="198" name="__module.model.down_blocks.0.attentions.0.transformer_blocks.0.ff.net.0.proj/aten::linear/MatMul" type="MatMul" version="opset1">
			<data transpose_a="false" transpose_b="true" />
			<input>
				<port id="0" precision="FP32">
					<dim>-1</dim>
					<dim>-1</dim>
					<dim>320</dim>
				</port>
				<port id="1" precision="FP32">
					<dim>2560</dim>
					<dim>320</dim>
				</port>
			</input>
			<output>
				<port id="2" precision="FP32">
					<dim>-1</dim>
					<dim>-1</dim>
					<dim>2560</dim>
				</port>
			</output>
		</layer>
		<layer id="199" name="Constant_58356_compressed" type="Const" version="opset1">
			<data element_type="f16" shape="1, 1, 2560" offset="12229004" size="5120" />
			<output>
				<port id="0" precision="FP16">
					<dim>1</dim>
					<dim>1</dim>
					<dim>2560</dim>
				</port>
			</output>
		</layer>
		<layer id="200" name="Constant_58356" type="Convert" version="opset1">
			<data destination_type="f32" />
			<rt_info>
				<attribute name="decompression" version="0" />
			</rt_info>
			<input>
				<port id="0" precision="FP16">
					<dim>1</dim>
					<dim>1</dim>
					<dim>2560</dim>
				</port>
			</input>
			<output>
				<port id="1" precision="FP32">
					<dim>1</dim>
					<dim>1</dim>
					<dim>2560</dim>
				</port>
			</output>
		</layer>
		<layer id="201" name="__module.model.down_blocks.0.attentions.0.transformer_blocks.0.ff.net.0.proj/aten::linear/Add" type="Add" version="opset1">
			<data auto_broadcast="numpy" />
			<input>
				<port id="0" precision="FP32">
					<dim>-1</dim>
					<dim>-1</dim>
					<dim>2560</dim>
				</port>
				<port id="1" precision="FP32">
					<dim>1</dim>
					<dim>1</dim>
					<dim>2560</dim>
				</port>
			</input>
			<output>
				<port id="2" precision="FP32" names="279,hidden_states.25">
					<dim>-1</dim>
					<dim>-1</dim>
					<dim>2560</dim>
				</port>
			</output>
		</layer>
		<layer id="202" name="30" type="Const" version="opset1">
			<data element_type="i64" shape="" offset="9892340" size="8" />
			<output>
				<port id="0" precision="I64" names="30" />
			</output>
		</layer>
		<layer id="203" name="__module.model.down_blocks.0.attentions.0.transformer_blocks.0.ff.net.0/prim::ListUnpack/ShapeOf" type="ShapeOf" version="opset3">
			<data output_type="i32" />
			<input>
				<port id="0" precision="FP32">
					<dim>-1</dim>
					<dim>-1</dim>
					<dim>2560</dim>
				</port>
			</input>
			<output>
				<port id="1" precision="I32">
					<dim>3</dim>
				</port>
			</output>
		</layer>
		<layer id="204" name="Constant_24319" type="Const" version="opset1">
			<data element_type="i32" shape="1" offset="12234124" size="4" />
			<output>
				<port id="0" precision="I32">
					<dim>1</dim>
				</port>
			</output>
		</layer>
		<layer id="205" name="__module.model.down_blocks.0.attentions.0.transformer_blocks.0.ff.net.0/prim::ListUnpack/Gather" type="Gather" version="opset8">
			<data batch_dims="0" />
			<input>
				<port id="0" precision="I32">
					<dim>3</dim>
				</port>
				<port id="1" precision="I64" />
				<port id="2" precision="I32">
					<dim>1</dim>
				</port>
			</input>
			<output>
				<port id="3" precision="I32" />
			</output>
		</layer>
		<layer id="206" name="__module.model.down_blocks.0.attentions.0.transformer_blocks.0.ff.net.0/prim::ListUnpack/Convert" type="Const" version="opset1">
			<data element_type="i32" shape="" offset="12234128" size="4" />
			<output>
				<port id="0" precision="I32" />
			</output>
		</layer>
		<layer id="207" name="__module.model.down_blocks.0.attentions.0.transformer_blocks.0.ff.net.0/prim::ListUnpack/Divide" type="Divide" version="opset1">
			<data auto_broadcast="numpy" m_pythondiv="true" />
			<input>
				<port id="0" precision="I32" />
				<port id="1" precision="I32" />
			</input>
			<output>
				<port id="2" precision="I32" />
			</output>
		</layer>
		<layer id="208" name="__module.model.down_blocks.0.attentions.0.transformer_blocks.0.ff.net.0/prim::ListUnpack/Mod" type="Mod" version="opset1">
			<data auto_broadcast="numpy" />
			<input>
				<port id="0" precision="I32" />
				<port id="1" precision="I32" />
			</input>
			<output>
				<port id="2" precision="I32" />
			</output>
		</layer>
		<layer id="209" name="__module.model.down_blocks.0.attentions.0.transformer_blocks.0.ff.net.0/prim::ListUnpack/Greater" type="Greater" version="opset1">
			<data auto_broadcast="numpy" />
			<input>
				<port id="0" precision="I32" />
				<port id="1" precision="I32">
					<dim>1</dim>
				</port>
			</input>
			<output>
				<port id="2" precision="BOOL">
					<dim>1</dim>
				</port>
			</output>
		</layer>
		<layer id="210" name="__module.model.down_blocks.0.attentions.0.transformer_blocks.0.ff.net.0/prim::ListUnpack/Convert_0" type="Convert" version="opset1">
			<data destination_type="i32" />
			<input>
				<port id="0" precision="BOOL">
					<dim>1</dim>
				</port>
			</input>
			<output>
				<port id="1" precision="I32">
					<dim>1</dim>
				</port>
			</output>
		</layer>
		<layer id="211" name="__module.model.down_blocks.0.attentions.0.transformer_blocks.0.ff.net.0/prim::ListUnpack/Add" type="Add" version="opset1">
			<data auto_broadcast="numpy" />
			<input>
				<port id="0" precision="I32" />
				<port id="1" precision="I32">
					<dim>1</dim>
				</port>
			</input>
			<output>
				<port id="2" precision="I32">
					<dim>1</dim>
				</port>
			</output>
		</layer>
		<layer id="212" name="Constant_24320" type="Const" version="opset1">
			<data element_type="i32" shape="1" offset="8865064" size="4" />
			<output>
				<port id="0" precision="I32">
					<dim>1</dim>
				</port>
			</output>
		</layer>
		<layer id="213" name="__module.model.down_blocks.0.attentions.0.transformer_blocks.0.ff.net.0/prim::ListUnpack/Concat" type="Concat" version="opset1">
			<data axis="0" />
			<input>
				<port id="0" precision="I32">
					<dim>1</dim>
				</port>
				<port id="1" precision="I32">
					<dim>1</dim>
				</port>
			</input>
			<output>
				<port id="2" precision="I32">
					<dim>2</dim>
				</port>
			</output>
		</layer>
		<layer id="214" name="__module.model.down_blocks.0.attentions.0.transformer_blocks.0.ff.net.0/prim::ListUnpack/VariadicSplit" type="VariadicSplit" version="opset1">
			<input>
				<port id="0" precision="FP32">
					<dim>-1</dim>
					<dim>-1</dim>
					<dim>2560</dim>
				</port>
				<port id="1" precision="I64" />
				<port id="2" precision="I32">
					<dim>2</dim>
				</port>
			</input>
			<output>
				<port id="3" precision="FP32" names="281,hidden_states.27">
					<dim>-1</dim>
					<dim>-1</dim>
					<dim>1280</dim>
				</port>
				<port id="4" precision="FP32" names="282,gate.1">
					<dim>-1</dim>
					<dim>-1</dim>
					<dim>1280</dim>
				</port>
			</output>
		</layer>
		<layer id="215" name="__module.model.down_blocks.0.attentions.0.transformer_blocks.0.ff.net.0/aten::gelu/Gelu" type="Gelu" version="opset7">
			<data approximation_mode="ERF" />
			<input>
				<port id="0" precision="FP32">
					<dim>-1</dim>
					<dim>-1</dim>
					<dim>1280</dim>
				</port>
			</input>
			<output>
				<port id="1" precision="FP32" names="283">
					<dim>-1</dim>
					<dim>-1</dim>
					<dim>1280</dim>
				</port>
			</output>
		</layer>
		<layer id="216" name="__module.model.down_blocks.0.attentions.0.transformer_blocks.0.ff.net.0/aten::mul/Multiply" type="Multiply" version="opset1">
			<data auto_broadcast="numpy" />
			<input>
				<port id="0" precision="FP32">
					<dim>-1</dim>
					<dim>-1</dim>
					<dim>1280</dim>
				</port>
				<port id="1" precision="FP32">
					<dim>-1</dim>
					<dim>-1</dim>
					<dim>1280</dim>
				</port>
			</input>
			<output>
				<port id="2" precision="FP32" names="284,input.43">
					<dim>-1</dim>
					<dim>-1</dim>
					<dim>1280</dim>
				</port>
			</output>
		</layer>
		<layer id="217" name="self.model.down_blocks.0.attentions.0.transformer_blocks.0.ff.net.2.weight_compressed" type="Const" version="opset1">
			<data element_type="f16" shape="320, 1280" offset="12234132" size="819200" />
			<output>
				<port id="0" precision="FP16" names="self.model.down_blocks.0.attentions.0.transformer_blocks.0.ff.net.2.weight">
					<dim>320</dim>
					<dim>1280</dim>
				</port>
			</output>
		</layer>
		<layer id="218" name="self.model.down_blocks.0.attentions.0.transformer_blocks.0.ff.net.2.weight" type="Convert" version="opset1">
			<data destination_type="f32" />
			<rt_info>
				<attribute name="decompression" version="0" />
			</rt_info>
			<input>
				<port id="0" precision="FP16">
					<dim>320</dim>
					<dim>1280</dim>
				</port>
			</input>
			<output>
				<port id="1" precision="FP32">
					<dim>320</dim>
					<dim>1280</dim>
				</port>
			</output>
		</layer>
		<layer id="219" name="__module.model.down_blocks.0.attentions.0.transformer_blocks.0.ff.net.2/aten::linear/MatMul" type="MatMul" version="opset1">
			<data transpose_a="false" transpose_b="true" />
			<input>
				<port id="0" precision="FP32">
					<dim>-1</dim>
					<dim>-1</dim>
					<dim>1280</dim>
				</port>
				<port id="1" precision="FP32">
					<dim>320</dim>
					<dim>1280</dim>
				</port>
			</input>
			<output>
				<port id="2" precision="FP32">
					<dim>-1</dim>
					<dim>-1</dim>
					<dim>320</dim>
				</port>
			</output>
		</layer>
		<layer id="220" name="Constant_58357_compressed" type="Const" version="opset1">
			<data element_type="f16" shape="1, 1, 320" offset="13053332" size="640" />
			<output>
				<port id="0" precision="FP16">
					<dim>1</dim>
					<dim>1</dim>
					<dim>320</dim>
				</port>
			</output>
		</layer>
		<layer id="221" name="Constant_58357" type="Convert" version="opset1">
			<data destination_type="f32" />
			<rt_info>
				<attribute name="decompression" version="0" />
			</rt_info>
			<input>
				<port id="0" precision="FP16">
					<dim>1</dim>
					<dim>1</dim>
					<dim>320</dim>
				</port>
			</input>
			<output>
				<port id="1" precision="FP32">
					<dim>1</dim>
					<dim>1</dim>
					<dim>320</dim>
				</port>
			</output>
		</layer>
		<layer id="222" name="__module.model.down_blocks.0.attentions.0.transformer_blocks.0.ff.net.2/aten::linear/Add" type="Add" version="opset1">
			<data auto_broadcast="numpy" />
			<input>
				<port id="0" precision="FP32">
					<dim>-1</dim>
					<dim>-1</dim>
					<dim>320</dim>
				</port>
				<port id="1" precision="FP32">
					<dim>1</dim>
					<dim>1</dim>
					<dim>320</dim>
				</port>
			</input>
			<output>
				<port id="2" precision="FP32" names="288,ff_output.1">
					<dim>-1</dim>
					<dim>-1</dim>
					<dim>320</dim>
				</port>
			</output>
		</layer>
		<layer id="223" name="__module.model.down_blocks.0.attentions.0.transformer_blocks.0/aten::add/Add_2" type="Add" version="opset1">
			<data auto_broadcast="numpy" />
			<input>
				<port id="0" precision="FP32">
					<dim>-1</dim>
					<dim>-1</dim>
					<dim>320</dim>
				</port>
				<port id="1" precision="FP32">
					<dim>-1</dim>
					<dim>-1</dim>
					<dim>320</dim>
				</port>
			</input>
			<output>
				<port id="2" precision="FP32" names="289,hidden_states.29">
					<dim>-1</dim>
					<dim>-1</dim>
					<dim>320</dim>
				</port>
			</output>
		</layer>
		<layer id="224" name="__module.model.down_blocks.0.attentions.0/aten::size/ShapeOf" type="ShapeOf" version="opset3">
			<data output_type="i64" />
			<input>
				<port id="0" precision="FP32">
					<dim>-1</dim>
					<dim>320</dim>
					<dim>-1</dim>
					<dim>-1</dim>
				</port>
			</input>
			<output>
				<port id="1" precision="I64">
					<dim>4</dim>
				</port>
			</output>
		</layer>
		<layer id="225" name="Constant_48101" type="Const" version="opset1">
			<data element_type="i64" shape="3" offset="13053972" size="24" />
			<rt_info>
				<attribute name="precise" version="0" />
			</rt_info>
			<output>
				<port id="0" precision="I64">
					<dim>3</dim>
				</port>
			</output>
		</layer>
		<layer id="226" name="Constant_48102" type="Const" version="opset1">
			<data element_type="i64" shape="" offset="1891840" size="8" />
			<rt_info>
				<attribute name="precise" version="0" />
			</rt_info>
			<output>
				<port id="0" precision="I64" />
			</output>
		</layer>
		<layer id="227" name="Gather_48103" type="Gather" version="opset8">
			<data batch_dims="0" />
			<input>
				<port id="0" precision="I64">
					<dim>4</dim>
				</port>
				<port id="1" precision="I64">
					<dim>3</dim>
				</port>
				<port id="2" precision="I64" />
			</input>
			<output>
				<port id="3" precision="I64">
					<dim>3</dim>
				</port>
			</output>
		</layer>
		<layer id="228" name="Constant_1543" type="Const" version="opset1">
			<data element_type="i64" shape="1" offset="13053996" size="8" />
			<rt_info>
				<attribute name="precise" version="0" />
			</rt_info>
			<output>
				<port id="0" precision="I64">
					<dim>1</dim>
				</port>
			</output>
		</layer>
		<layer id="229" name="__module.model.down_blocks.0.attentions.0/prim::ListConstruct/SequenceMark_1" type="Concat" version="opset1">
			<data axis="0" />
			<input>
				<port id="0" precision="I64">
					<dim>3</dim>
				</port>
				<port id="1" precision="I64">
					<dim>1</dim>
				</port>
			</input>
			<output>
				<port id="2" precision="I64">
					<dim>4</dim>
				</port>
			</output>
		</layer>
		<layer id="230" name="__module.model.down_blocks.0.attentions.0/aten::reshape/Reshape_1" type="Reshape" version="opset1">
			<data special_zero="false" />
			<input>
				<port id="0" precision="FP32">
					<dim>-1</dim>
					<dim>-1</dim>
					<dim>320</dim>
				</port>
				<port id="1" precision="I64">
					<dim>4</dim>
				</port>
			</input>
			<output>
				<port id="2" precision="FP32" names="291">
					<dim>-1</dim>
					<dim>-1</dim>
					<dim>-1</dim>
					<dim>320</dim>
				</port>
			</output>
		</layer>
		<layer id="231" name="Constant_1557" type="Const" version="opset1">
			<data element_type="i64" shape="4" offset="13054004" size="32" />
			<output>
				<port id="0" precision="I64">
					<dim>4</dim>
				</port>
			</output>
		</layer>
		<layer id="232" name="__module.model.down_blocks.0.attentions.0/aten::permute/Transpose_1" type="Transpose" version="opset1">
			<input>
				<port id="0" precision="FP32">
					<dim>-1</dim>
					<dim>-1</dim>
					<dim>-1</dim>
					<dim>320</dim>
				</port>
				<port id="1" precision="I64">
					<dim>4</dim>
				</port>
			</input>
			<output>
				<port id="2" precision="FP32" names="293">
					<dim>-1</dim>
					<dim>320</dim>
					<dim>-1</dim>
					<dim>-1</dim>
				</port>
			</output>
		</layer>
		<layer id="233" name="self.model.down_blocks.0.attentions.0.proj_out.weight_compressed" type="Const" version="opset1">
			<data element_type="f16" shape="320, 320, 1, 1" offset="13054036" size="204800" />
			<output>
				<port id="0" precision="FP16" names="self.model.down_blocks.0.attentions.0.proj_out.weight">
					<dim>320</dim>
					<dim>320</dim>
					<dim>1</dim>
					<dim>1</dim>
				</port>
			</output>
		</layer>
		<layer id="234" name="self.model.down_blocks.0.attentions.0.proj_out.weight" type="Convert" version="opset1">
			<data destination_type="f32" />
			<rt_info>
				<attribute name="decompression" version="0" />
			</rt_info>
			<input>
				<port id="0" precision="FP16">
					<dim>320</dim>
					<dim>320</dim>
					<dim>1</dim>
					<dim>1</dim>
				</port>
			</input>
			<output>
				<port id="1" precision="FP32">
					<dim>320</dim>
					<dim>320</dim>
					<dim>1</dim>
					<dim>1</dim>
				</port>
			</output>
		</layer>
		<layer id="235" name="__module.model.down_blocks.0.attentions.0.proj_out/aten::_convolution/Convolution" type="Convolution" version="opset1">
			<data strides="1, 1" dilations="1, 1" pads_begin="0, 0" pads_end="0, 0" auto_pad="explicit" />
			<input>
				<port id="0" precision="FP32">
					<dim>-1</dim>
					<dim>320</dim>
					<dim>-1</dim>
					<dim>-1</dim>
				</port>
				<port id="1" precision="FP32">
					<dim>320</dim>
					<dim>320</dim>
					<dim>1</dim>
					<dim>1</dim>
				</port>
			</input>
			<output>
				<port id="2" precision="FP32">
					<dim>-1</dim>
					<dim>320</dim>
					<dim>-1</dim>
					<dim>-1</dim>
				</port>
			</output>
		</layer>
		<layer id="236" name="__module.model.down_blocks.0.attentions.0.proj_out/aten::_convolution/Reshape_compressed" type="Const" version="opset1">
			<data element_type="f16" shape="1, 320, 1, 1" offset="13258836" size="640" />
			<output>
				<port id="0" precision="FP16">
					<dim>1</dim>
					<dim>320</dim>
					<dim>1</dim>
					<dim>1</dim>
				</port>
			</output>
		</layer>
		<layer id="237" name="__module.model.down_blocks.0.attentions.0.proj_out/aten::_convolution/Reshape" type="Convert" version="opset1">
			<data destination_type="f32" />
			<rt_info>
				<attribute name="decompression" version="0" />
			</rt_info>
			<input>
				<port id="0" precision="FP16">
					<dim>1</dim>
					<dim>320</dim>
					<dim>1</dim>
					<dim>1</dim>
				</port>
			</input>
			<output>
				<port id="1" precision="FP32">
					<dim>1</dim>
					<dim>320</dim>
					<dim>1</dim>
					<dim>1</dim>
				</port>
			</output>
		</layer>
		<layer id="238" name="__module.model.down_blocks.0.attentions.0.proj_out/aten::_convolution/Add" type="Add" version="opset1">
			<data auto_broadcast="numpy" />
			<input>
				<port id="0" precision="FP32">
					<dim>-1</dim>
					<dim>320</dim>
					<dim>-1</dim>
					<dim>-1</dim>
				</port>
				<port id="1" precision="FP32">
					<dim>1</dim>
					<dim>320</dim>
					<dim>1</dim>
					<dim>1</dim>
				</port>
			</input>
			<output>
				<port id="2" precision="FP32" names="301,hidden_states.31">
					<dim>-1</dim>
					<dim>320</dim>
					<dim>-1</dim>
					<dim>-1</dim>
				</port>
			</output>
		</layer>
		<layer id="239" name="__module.model.down_blocks.0.attentions.0/aten::add/Add" type="Add" version="opset1">
			<data auto_broadcast="numpy" />
			<input>
				<port id="0" precision="FP32">
					<dim>-1</dim>
					<dim>320</dim>
					<dim>-1</dim>
					<dim>-1</dim>
				</port>
				<port id="1" precision="FP32">
					<dim>-1</dim>
					<dim>320</dim>
					<dim>-1</dim>
					<dim>-1</dim>
				</port>
			</input>
			<output>
				<port id="2" precision="FP32" names="302,input.49">
					<dim>-1</dim>
					<dim>320</dim>
					<dim>-1</dim>
					<dim>-1</dim>
				</port>
			</output>
		</layer>
		<layer id="240" name="self.model.down_blocks.0.resnets.1.norm1.weight_compressed" type="Const" version="opset1">
			<data element_type="f16" shape="320" offset="13259476" size="640" />
			<output>
				<port id="0" precision="FP16" names="self.model.down_blocks.0.resnets.1.norm1.weight">
					<dim>320</dim>
				</port>
			</output>
		</layer>
		<layer id="241" name="self.model.down_blocks.0.resnets.1.norm1.weight" type="Convert" version="opset1">
			<data destination_type="f32" />
			<rt_info>
				<attribute name="decompression" version="0" />
			</rt_info>
			<input>
				<port id="0" precision="FP16">
					<dim>320</dim>
				</port>
			</input>
			<output>
				<port id="1" precision="FP32">
					<dim>320</dim>
				</port>
			</output>
		</layer>
		<layer id="242" name="self.model.down_blocks.0.resnets.1.norm1.bias_compressed" type="Const" version="opset1">
			<data element_type="f16" shape="320" offset="13260116" size="640" />
			<output>
				<port id="0" precision="FP16" names="self.model.down_blocks.0.resnets.1.norm1.bias">
					<dim>320</dim>
				</port>
			</output>
		</layer>
		<layer id="243" name="self.model.down_blocks.0.resnets.1.norm1.bias" type="Convert" version="opset1">
			<data destination_type="f32" />
			<rt_info>
				<attribute name="decompression" version="0" />
			</rt_info>
			<input>
				<port id="0" precision="FP16">
					<dim>320</dim>
				</port>
			</input>
			<output>
				<port id="1" precision="FP32">
					<dim>320</dim>
				</port>
			</output>
		</layer>
		<layer id="244" name="__module.model.down_blocks.0.resnets.1.norm1/aten::group_norm/GroupNormalization" type="GroupNormalization" version="opset12">
			<data num_groups="32" epsilon="9.9999997473787516e-06" />
			<input>
				<port id="0" precision="FP32">
					<dim>-1</dim>
					<dim>320</dim>
					<dim>-1</dim>
					<dim>-1</dim>
				</port>
				<port id="1" precision="FP32">
					<dim>320</dim>
				</port>
				<port id="2" precision="FP32">
					<dim>320</dim>
				</port>
			</input>
			<output>
				<port id="3" precision="FP32" names="310,input.51">
					<dim>-1</dim>
					<dim>320</dim>
					<dim>-1</dim>
					<dim>-1</dim>
				</port>
			</output>
		</layer>
		<layer id="245" name="__module.model.conv_act/aten::silu/Swish_4" type="Swish" version="opset4">
			<input>
				<port id="0" precision="FP32">
					<dim>-1</dim>
					<dim>320</dim>
					<dim>-1</dim>
					<dim>-1</dim>
				</port>
			</input>
			<output>
				<port id="1" precision="FP32" names="311,input.53">
					<dim>-1</dim>
					<dim>320</dim>
					<dim>-1</dim>
					<dim>-1</dim>
				</port>
			</output>
		</layer>
		<layer id="246" name="self.model.down_blocks.0.resnets.1.conv1.weight_compressed" type="Const" version="opset1">
			<data element_type="f16" shape="320, 320, 3, 3" offset="13260756" size="1843200" />
			<output>
				<port id="0" precision="FP16" names="self.model.down_blocks.0.resnets.1.conv1.weight">
					<dim>320</dim>
					<dim>320</dim>
					<dim>3</dim>
					<dim>3</dim>
				</port>
			</output>
		</layer>
		<layer id="247" name="self.model.down_blocks.0.resnets.1.conv1.weight" type="Convert" version="opset1">
			<data destination_type="f32" />
			<rt_info>
				<attribute name="decompression" version="0" />
			</rt_info>
			<input>
				<port id="0" precision="FP16">
					<dim>320</dim>
					<dim>320</dim>
					<dim>3</dim>
					<dim>3</dim>
				</port>
			</input>
			<output>
				<port id="1" precision="FP32">
					<dim>320</dim>
					<dim>320</dim>
					<dim>3</dim>
					<dim>3</dim>
				</port>
			</output>
		</layer>
		<layer id="248" name="__module.model.down_blocks.0.resnets.1.conv1/aten::_convolution/Convolution" type="Convolution" version="opset1">
			<data strides="1, 1" dilations="1, 1" pads_begin="1, 1" pads_end="1, 1" auto_pad="explicit" />
			<input>
				<port id="0" precision="FP32">
					<dim>-1</dim>
					<dim>320</dim>
					<dim>-1</dim>
					<dim>-1</dim>
				</port>
				<port id="1" precision="FP32">
					<dim>320</dim>
					<dim>320</dim>
					<dim>3</dim>
					<dim>3</dim>
				</port>
			</input>
			<output>
				<port id="2" precision="FP32">
					<dim>-1</dim>
					<dim>320</dim>
					<dim>-1</dim>
					<dim>-1</dim>
				</port>
			</output>
		</layer>
		<layer id="249" name="__module.model.down_blocks.0.resnets.1.conv1/aten::_convolution/Reshape_compressed" type="Const" version="opset1">
			<data element_type="f16" shape="1, 320, 1, 1" offset="15103956" size="640" />
			<output>
				<port id="0" precision="FP16">
					<dim>1</dim>
					<dim>320</dim>
					<dim>1</dim>
					<dim>1</dim>
				</port>
			</output>
		</layer>
		<layer id="250" name="__module.model.down_blocks.0.resnets.1.conv1/aten::_convolution/Reshape" type="Convert" version="opset1">
			<data destination_type="f32" />
			<rt_info>
				<attribute name="decompression" version="0" />
			</rt_info>
			<input>
				<port id="0" precision="FP16">
					<dim>1</dim>
					<dim>320</dim>
					<dim>1</dim>
					<dim>1</dim>
				</port>
			</input>
			<output>
				<port id="1" precision="FP32">
					<dim>1</dim>
					<dim>320</dim>
					<dim>1</dim>
					<dim>1</dim>
				</port>
			</output>
		</layer>
		<layer id="251" name="__module.model.down_blocks.0.resnets.1.conv1/aten::_convolution/Add" type="Add" version="opset1">
			<data auto_broadcast="numpy" />
			<input>
				<port id="0" precision="FP32">
					<dim>-1</dim>
					<dim>320</dim>
					<dim>-1</dim>
					<dim>-1</dim>
				</port>
				<port id="1" precision="FP32">
					<dim>1</dim>
					<dim>320</dim>
					<dim>1</dim>
					<dim>1</dim>
				</port>
			</input>
			<output>
				<port id="2" precision="FP32" names="318,hidden_states.33">
					<dim>-1</dim>
					<dim>320</dim>
					<dim>-1</dim>
					<dim>-1</dim>
				</port>
			</output>
		</layer>
		<layer id="252" name="self.model.down_blocks.0.resnets.1.time_emb_proj.weight_compressed" type="Const" version="opset1">
			<data element_type="f16" shape="320, 1280" offset="15104596" size="819200" />
			<output>
				<port id="0" precision="FP16" names="self.model.down_blocks.0.resnets.1.time_emb_proj.weight">
					<dim>320</dim>
					<dim>1280</dim>
				</port>
			</output>
		</layer>
		<layer id="253" name="self.model.down_blocks.0.resnets.1.time_emb_proj.weight" type="Convert" version="opset1">
			<data destination_type="f32" />
			<rt_info>
				<attribute name="decompression" version="0" />
			</rt_info>
			<input>
				<port id="0" precision="FP16">
					<dim>320</dim>
					<dim>1280</dim>
				</port>
			</input>
			<output>
				<port id="1" precision="FP32">
					<dim>320</dim>
					<dim>1280</dim>
				</port>
			</output>
		</layer>
		<layer id="254" name="__module.model.down_blocks.0.resnets.1.time_emb_proj/aten::linear/MatMul" type="MatMul" version="opset1">
			<data transpose_a="false" transpose_b="true" />
			<input>
				<port id="0" precision="FP32">
					<dim>-1</dim>
					<dim>1280</dim>
				</port>
				<port id="1" precision="FP32">
					<dim>320</dim>
					<dim>1280</dim>
				</port>
			</input>
			<output>
				<port id="2" precision="FP32">
					<dim>-1</dim>
					<dim>320</dim>
				</port>
			</output>
		</layer>
		<layer id="255" name="Constant_58358_compressed" type="Const" version="opset1">
			<data element_type="f16" shape="1, 320" offset="15923796" size="640" />
			<output>
				<port id="0" precision="FP16">
					<dim>1</dim>
					<dim>320</dim>
				</port>
			</output>
		</layer>
		<layer id="256" name="Constant_58358" type="Convert" version="opset1">
			<data destination_type="f32" />
			<rt_info>
				<attribute name="decompression" version="0" />
			</rt_info>
			<input>
				<port id="0" precision="FP16">
					<dim>1</dim>
					<dim>320</dim>
				</port>
			</input>
			<output>
				<port id="1" precision="FP32">
					<dim>1</dim>
					<dim>320</dim>
				</port>
			</output>
		</layer>
		<layer id="257" name="__module.model.down_blocks.0.resnets.1.time_emb_proj/aten::linear/Add" type="Add" version="opset1">
			<data auto_broadcast="numpy" />
			<input>
				<port id="0" precision="FP32">
					<dim>-1</dim>
					<dim>320</dim>
				</port>
				<port id="1" precision="FP32">
					<dim>1</dim>
					<dim>320</dim>
				</port>
			</input>
			<output>
				<port id="2" precision="FP32" names="322,323,324">
					<dim>-1</dim>
					<dim>320</dim>
				</port>
			</output>
		</layer>
		<layer id="258" name="__module.model.down_blocks.0.resnets.1/aten::unsqueeze/Unsqueeze" type="Unsqueeze" version="opset1">
			<input>
				<port id="0" precision="FP32">
					<dim>-1</dim>
					<dim>320</dim>
				</port>
				<port id="1" precision="I64" />
			</input>
			<output>
				<port id="2" precision="FP32" names="325">
					<dim>-1</dim>
					<dim>320</dim>
					<dim>1</dim>
				</port>
			</output>
		</layer>
		<layer id="259" name="__module.model.down_blocks.0.resnets.1/aten::unsqueeze/Unsqueeze_1" type="Unsqueeze" version="opset1">
			<input>
				<port id="0" precision="FP32">
					<dim>-1</dim>
					<dim>320</dim>
					<dim>1</dim>
				</port>
				<port id="1" precision="I64" />
			</input>
			<output>
				<port id="2" precision="FP32" names="326,temb.3">
					<dim>-1</dim>
					<dim>320</dim>
					<dim>1</dim>
					<dim>1</dim>
				</port>
			</output>
		</layer>
		<layer id="260" name="__module.model.down_blocks.0.resnets.1/aten::add/Add" type="Add" version="opset1">
			<data auto_broadcast="numpy" />
			<input>
				<port id="0" precision="FP32">
					<dim>-1</dim>
					<dim>320</dim>
					<dim>-1</dim>
					<dim>-1</dim>
				</port>
				<port id="1" precision="FP32">
					<dim>-1</dim>
					<dim>320</dim>
					<dim>1</dim>
					<dim>1</dim>
				</port>
			</input>
			<output>
				<port id="2" precision="FP32" names="327,input.57">
					<dim>-1</dim>
					<dim>320</dim>
					<dim>-1</dim>
					<dim>-1</dim>
				</port>
			</output>
		</layer>
		<layer id="261" name="self.model.down_blocks.0.resnets.1.norm2.weight_compressed" type="Const" version="opset1">
			<data element_type="f16" shape="320" offset="15924436" size="640" />
			<output>
				<port id="0" precision="FP16" names="self.model.down_blocks.0.resnets.1.norm2.weight">
					<dim>320</dim>
				</port>
			</output>
		</layer>
		<layer id="262" name="self.model.down_blocks.0.resnets.1.norm2.weight" type="Convert" version="opset1">
			<data destination_type="f32" />
			<rt_info>
				<attribute name="decompression" version="0" />
			</rt_info>
			<input>
				<port id="0" precision="FP16">
					<dim>320</dim>
				</port>
			</input>
			<output>
				<port id="1" precision="FP32">
					<dim>320</dim>
				</port>
			</output>
		</layer>
		<layer id="263" name="self.model.down_blocks.0.resnets.1.norm2.bias_compressed" type="Const" version="opset1">
			<data element_type="f16" shape="320" offset="15925076" size="640" />
			<output>
				<port id="0" precision="FP16" names="self.model.down_blocks.0.resnets.1.norm2.bias">
					<dim>320</dim>
				</port>
			</output>
		</layer>
		<layer id="264" name="self.model.down_blocks.0.resnets.1.norm2.bias" type="Convert" version="opset1">
			<data destination_type="f32" />
			<rt_info>
				<attribute name="decompression" version="0" />
			</rt_info>
			<input>
				<port id="0" precision="FP16">
					<dim>320</dim>
				</port>
			</input>
			<output>
				<port id="1" precision="FP32">
					<dim>320</dim>
				</port>
			</output>
		</layer>
		<layer id="265" name="__module.model.down_blocks.0.resnets.1.norm2/aten::group_norm/GroupNormalization" type="GroupNormalization" version="opset12">
			<data num_groups="32" epsilon="9.9999997473787516e-06" />
			<input>
				<port id="0" precision="FP32">
					<dim>-1</dim>
					<dim>320</dim>
					<dim>-1</dim>
					<dim>-1</dim>
				</port>
				<port id="1" precision="FP32">
					<dim>320</dim>
				</port>
				<port id="2" precision="FP32">
					<dim>320</dim>
				</port>
			</input>
			<output>
				<port id="3" precision="FP32" names="330,input.59">
					<dim>-1</dim>
					<dim>320</dim>
					<dim>-1</dim>
					<dim>-1</dim>
				</port>
			</output>
		</layer>
		<layer id="266" name="__module.model.conv_act/aten::silu/Swish_6" type="Swish" version="opset4">
			<input>
				<port id="0" precision="FP32">
					<dim>-1</dim>
					<dim>320</dim>
					<dim>-1</dim>
					<dim>-1</dim>
				</port>
			</input>
			<output>
				<port id="1" precision="FP32" names="331,input.61">
					<dim>-1</dim>
					<dim>320</dim>
					<dim>-1</dim>
					<dim>-1</dim>
				</port>
			</output>
		</layer>
		<layer id="267" name="self.model.down_blocks.0.resnets.1.conv2.weight_compressed" type="Const" version="opset1">
			<data element_type="f16" shape="320, 320, 3, 3" offset="15925716" size="1843200" />
			<output>
				<port id="0" precision="FP16" names="self.model.down_blocks.0.resnets.1.conv2.weight">
					<dim>320</dim>
					<dim>320</dim>
					<dim>3</dim>
					<dim>3</dim>
				</port>
			</output>
		</layer>
		<layer id="268" name="self.model.down_blocks.0.resnets.1.conv2.weight" type="Convert" version="opset1">
			<data destination_type="f32" />
			<rt_info>
				<attribute name="decompression" version="0" />
			</rt_info>
			<input>
				<port id="0" precision="FP16">
					<dim>320</dim>
					<dim>320</dim>
					<dim>3</dim>
					<dim>3</dim>
				</port>
			</input>
			<output>
				<port id="1" precision="FP32">
					<dim>320</dim>
					<dim>320</dim>
					<dim>3</dim>
					<dim>3</dim>
				</port>
			</output>
		</layer>
		<layer id="269" name="__module.model.down_blocks.0.resnets.1.conv2/aten::_convolution/Convolution" type="Convolution" version="opset1">
			<data strides="1, 1" dilations="1, 1" pads_begin="1, 1" pads_end="1, 1" auto_pad="explicit" />
			<input>
				<port id="0" precision="FP32">
					<dim>-1</dim>
					<dim>320</dim>
					<dim>-1</dim>
					<dim>-1</dim>
				</port>
				<port id="1" precision="FP32">
					<dim>320</dim>
					<dim>320</dim>
					<dim>3</dim>
					<dim>3</dim>
				</port>
			</input>
			<output>
				<port id="2" precision="FP32">
					<dim>-1</dim>
					<dim>320</dim>
					<dim>-1</dim>
					<dim>-1</dim>
				</port>
			</output>
		</layer>
		<layer id="270" name="__module.model.down_blocks.0.resnets.1.conv2/aten::_convolution/Reshape_compressed" type="Const" version="opset1">
			<data element_type="f16" shape="1, 320, 1, 1" offset="17768916" size="640" />
			<output>
				<port id="0" precision="FP16">
					<dim>1</dim>
					<dim>320</dim>
					<dim>1</dim>
					<dim>1</dim>
				</port>
			</output>
		</layer>
		<layer id="271" name="__module.model.down_blocks.0.resnets.1.conv2/aten::_convolution/Reshape" type="Convert" version="opset1">
			<data destination_type="f32" />
			<rt_info>
				<attribute name="decompression" version="0" />
			</rt_info>
			<input>
				<port id="0" precision="FP16">
					<dim>1</dim>
					<dim>320</dim>
					<dim>1</dim>
					<dim>1</dim>
				</port>
			</input>
			<output>
				<port id="1" precision="FP32">
					<dim>1</dim>
					<dim>320</dim>
					<dim>1</dim>
					<dim>1</dim>
				</port>
			</output>
		</layer>
		<layer id="272" name="__module.model.down_blocks.0.resnets.1.conv2/aten::_convolution/Add" type="Add" version="opset1">
			<data auto_broadcast="numpy" />
			<input>
				<port id="0" precision="FP32">
					<dim>-1</dim>
					<dim>320</dim>
					<dim>-1</dim>
					<dim>-1</dim>
				</port>
				<port id="1" precision="FP32">
					<dim>1</dim>
					<dim>320</dim>
					<dim>1</dim>
					<dim>1</dim>
				</port>
			</input>
			<output>
				<port id="2" precision="FP32" names="339,hidden_states.35">
					<dim>-1</dim>
					<dim>320</dim>
					<dim>-1</dim>
					<dim>-1</dim>
				</port>
			</output>
		</layer>
		<layer id="273" name="__module.model.down_blocks.0.resnets.1/aten::add/Add_1" type="Add" version="opset1">
			<data auto_broadcast="numpy" />
			<input>
				<port id="0" precision="FP32">
					<dim>-1</dim>
					<dim>320</dim>
					<dim>-1</dim>
					<dim>-1</dim>
				</port>
				<port id="1" precision="FP32">
					<dim>-1</dim>
					<dim>320</dim>
					<dim>-1</dim>
					<dim>-1</dim>
				</port>
			</input>
			<output>
				<port id="2" precision="FP32" names="340,341,hidden_states.37">
					<dim>-1</dim>
					<dim>320</dim>
					<dim>-1</dim>
					<dim>-1</dim>
				</port>
			</output>
		</layer>
		<layer id="274" name="self.model.down_blocks.0.attentions.1.norm.weight_compressed" type="Const" version="opset1">
			<data element_type="f16" shape="320" offset="17769556" size="640" />
			<output>
				<port id="0" precision="FP16" names="self.model.down_blocks.0.attentions.1.norm.weight">
					<dim>320</dim>
				</port>
			</output>
		</layer>
		<layer id="275" name="self.model.down_blocks.0.attentions.1.norm.weight" type="Convert" version="opset1">
			<data destination_type="f32" />
			<rt_info>
				<attribute name="decompression" version="0" />
			</rt_info>
			<input>
				<port id="0" precision="FP16">
					<dim>320</dim>
				</port>
			</input>
			<output>
				<port id="1" precision="FP32">
					<dim>320</dim>
				</port>
			</output>
		</layer>
		<layer id="276" name="self.model.down_blocks.0.attentions.1.norm.bias_compressed" type="Const" version="opset1">
			<data element_type="f16" shape="320" offset="17770196" size="640" />
			<output>
				<port id="0" precision="FP16" names="self.model.down_blocks.0.attentions.1.norm.bias">
					<dim>320</dim>
				</port>
			</output>
		</layer>
		<layer id="277" name="self.model.down_blocks.0.attentions.1.norm.bias" type="Convert" version="opset1">
			<data destination_type="f32" />
			<rt_info>
				<attribute name="decompression" version="0" />
			</rt_info>
			<input>
				<port id="0" precision="FP16">
					<dim>320</dim>
				</port>
			</input>
			<output>
				<port id="1" precision="FP32">
					<dim>320</dim>
				</port>
			</output>
		</layer>
		<layer id="278" name="__module.model.down_blocks.0.attentions.1.norm/aten::group_norm/GroupNormalization" type="GroupNormalization" version="opset12">
			<data num_groups="32" epsilon="9.9999999747524271e-07" />
			<input>
				<port id="0" precision="FP32">
					<dim>-1</dim>
					<dim>320</dim>
					<dim>-1</dim>
					<dim>-1</dim>
				</port>
				<port id="1" precision="FP32">
					<dim>320</dim>
				</port>
				<port id="2" precision="FP32">
					<dim>320</dim>
				</port>
			</input>
			<output>
				<port id="3" precision="FP32" names="357,input.65">
					<dim>-1</dim>
					<dim>320</dim>
					<dim>-1</dim>
					<dim>-1</dim>
				</port>
			</output>
		</layer>
		<layer id="279" name="self.model.down_blocks.0.attentions.1.proj_in.weight_compressed" type="Const" version="opset1">
			<data element_type="f16" shape="320, 320, 1, 1" offset="17770836" size="204800" />
			<output>
				<port id="0" precision="FP16" names="self.model.down_blocks.0.attentions.1.proj_in.weight">
					<dim>320</dim>
					<dim>320</dim>
					<dim>1</dim>
					<dim>1</dim>
				</port>
			</output>
		</layer>
		<layer id="280" name="self.model.down_blocks.0.attentions.1.proj_in.weight" type="Convert" version="opset1">
			<data destination_type="f32" />
			<rt_info>
				<attribute name="decompression" version="0" />
			</rt_info>
			<input>
				<port id="0" precision="FP16">
					<dim>320</dim>
					<dim>320</dim>
					<dim>1</dim>
					<dim>1</dim>
				</port>
			</input>
			<output>
				<port id="1" precision="FP32">
					<dim>320</dim>
					<dim>320</dim>
					<dim>1</dim>
					<dim>1</dim>
				</port>
			</output>
		</layer>
		<layer id="281" name="__module.model.down_blocks.0.attentions.1.proj_in/aten::_convolution/Convolution" type="Convolution" version="opset1">
			<data strides="1, 1" dilations="1, 1" pads_begin="0, 0" pads_end="0, 0" auto_pad="explicit" />
			<input>
				<port id="0" precision="FP32">
					<dim>-1</dim>
					<dim>320</dim>
					<dim>-1</dim>
					<dim>-1</dim>
				</port>
				<port id="1" precision="FP32">
					<dim>320</dim>
					<dim>320</dim>
					<dim>1</dim>
					<dim>1</dim>
				</port>
			</input>
			<output>
				<port id="2" precision="FP32">
					<dim>-1</dim>
					<dim>320</dim>
					<dim>-1</dim>
					<dim>-1</dim>
				</port>
			</output>
		</layer>
		<layer id="282" name="__module.model.down_blocks.0.attentions.1.proj_in/aten::_convolution/Reshape" type="Const" version="opset1">
			<data element_type="f32" shape="1, 320, 1, 1" offset="17975636" size="1280" />
			<output>
				<port id="0" precision="FP32">
					<dim>1</dim>
					<dim>320</dim>
					<dim>1</dim>
					<dim>1</dim>
				</port>
			</output>
		</layer>
		<layer id="283" name="__module.model.down_blocks.0.attentions.1.proj_in/aten::_convolution/Add" type="Add" version="opset1">
			<data auto_broadcast="numpy" />
			<input>
				<port id="0" precision="FP32">
					<dim>-1</dim>
					<dim>320</dim>
					<dim>-1</dim>
					<dim>-1</dim>
				</port>
				<port id="1" precision="FP32">
					<dim>1</dim>
					<dim>320</dim>
					<dim>1</dim>
					<dim>1</dim>
				</port>
			</input>
			<output>
				<port id="2" precision="FP32" names="364,hidden_states.39">
					<dim>-1</dim>
					<dim>320</dim>
					<dim>-1</dim>
					<dim>-1</dim>
				</port>
			</output>
		</layer>
		<layer id="284" name="Constant_1875" type="Const" version="opset1">
			<data element_type="i64" shape="4" offset="8865008" size="32" />
			<output>
				<port id="0" precision="I64">
					<dim>4</dim>
				</port>
			</output>
		</layer>
		<layer id="285" name="__module.model.down_blocks.0.attentions.1/aten::permute/Transpose" type="Transpose" version="opset1">
			<input>
				<port id="0" precision="FP32">
					<dim>-1</dim>
					<dim>320</dim>
					<dim>-1</dim>
					<dim>-1</dim>
				</port>
				<port id="1" precision="I64">
					<dim>4</dim>
				</port>
			</input>
			<output>
				<port id="2" precision="FP32" names="367">
					<dim>-1</dim>
					<dim>-1</dim>
					<dim>-1</dim>
					<dim>320</dim>
				</port>
			</output>
		</layer>
		<layer id="286" name="Constant_61322" type="Const" version="opset1">
			<data element_type="i64" shape="3" offset="8865040" size="24" />
			<rt_info>
				<attribute name="precise" version="0" />
			</rt_info>
			<output>
				<port id="0" precision="I64">
					<dim>3</dim>
				</port>
			</output>
		</layer>
		<layer id="287" name="__module.model.down_blocks.0.attentions.1/aten::reshape/Reshape" type="Reshape" version="opset1">
			<data special_zero="true" />
			<input>
				<port id="0" precision="FP32">
					<dim>-1</dim>
					<dim>-1</dim>
					<dim>-1</dim>
					<dim>320</dim>
				</port>
				<port id="1" precision="I64">
					<dim>3</dim>
				</port>
			</input>
			<output>
				<port id="2" precision="FP32" names="371,hidden_states.41">
					<dim>-1</dim>
					<dim>-1</dim>
					<dim>320</dim>
				</port>
			</output>
		</layer>
		<layer id="288" name="__module.model.down_blocks.0.attentions.1.transformer_blocks.0.norm1/aten::layer_norm/Multiply" type="Const" version="opset1">
			<data element_type="i32" shape="1" offset="8865064" size="4" />
			<output>
				<port id="0" precision="I32">
					<dim>1</dim>
				</port>
			</output>
		</layer>
		<layer id="289" name="__module.model.down_blocks.0.attentions.1.transformer_blocks.0.norm1/aten::layer_norm/MVN" type="MVN" version="opset6">
			<data eps="9.9999997473787516e-06" normalize_variance="true" eps_mode="INSIDE_SQRT" />
			<input>
				<port id="0" precision="FP32">
					<dim>-1</dim>
					<dim>-1</dim>
					<dim>320</dim>
				</port>
				<port id="1" precision="I32">
					<dim>1</dim>
				</port>
			</input>
			<output>
				<port id="2" precision="FP32">
					<dim>-1</dim>
					<dim>-1</dim>
					<dim>320</dim>
				</port>
			</output>
		</layer>
		<layer id="290" name="Constant_58359_compressed" type="Const" version="opset1">
			<data element_type="f16" shape="1, 1, 320" offset="17976916" size="640" />
			<output>
				<port id="0" precision="FP16">
					<dim>1</dim>
					<dim>1</dim>
					<dim>320</dim>
				</port>
			</output>
		</layer>
		<layer id="291" name="Constant_58359" type="Convert" version="opset1">
			<data destination_type="f32" />
			<rt_info>
				<attribute name="decompression" version="0" />
			</rt_info>
			<input>
				<port id="0" precision="FP16">
					<dim>1</dim>
					<dim>1</dim>
					<dim>320</dim>
				</port>
			</input>
			<output>
				<port id="1" precision="FP32">
					<dim>1</dim>
					<dim>1</dim>
					<dim>320</dim>
				</port>
			</output>
		</layer>
		<layer id="292" name="__module.model.down_blocks.0.attentions.1.transformer_blocks.0.norm1/aten::layer_norm/Multiply_1" type="Multiply" version="opset1">
			<data auto_broadcast="numpy" />
			<input>
				<port id="0" precision="FP32">
					<dim>-1</dim>
					<dim>-1</dim>
					<dim>320</dim>
				</port>
				<port id="1" precision="FP32">
					<dim>1</dim>
					<dim>1</dim>
					<dim>320</dim>
				</port>
			</input>
			<output>
				<port id="2" precision="FP32">
					<dim>-1</dim>
					<dim>-1</dim>
					<dim>320</dim>
				</port>
			</output>
		</layer>
		<layer id="293" name="Constant_58360_compressed" type="Const" version="opset1">
			<data element_type="f16" shape="1, 1, 320" offset="17977556" size="640" />
			<output>
				<port id="0" precision="FP16">
					<dim>1</dim>
					<dim>1</dim>
					<dim>320</dim>
				</port>
			</output>
		</layer>
		<layer id="294" name="Constant_58360" type="Convert" version="opset1">
			<data destination_type="f32" />
			<rt_info>
				<attribute name="decompression" version="0" />
			</rt_info>
			<input>
				<port id="0" precision="FP16">
					<dim>1</dim>
					<dim>1</dim>
					<dim>320</dim>
				</port>
			</input>
			<output>
				<port id="1" precision="FP32">
					<dim>1</dim>
					<dim>1</dim>
					<dim>320</dim>
				</port>
			</output>
		</layer>
		<layer id="295" name="__module.model.down_blocks.0.attentions.1.transformer_blocks.0.norm1/aten::layer_norm/Add" type="Add" version="opset1">
			<data auto_broadcast="numpy" />
			<input>
				<port id="0" precision="FP32">
					<dim>-1</dim>
					<dim>-1</dim>
					<dim>320</dim>
				</port>
				<port id="1" precision="FP32">
					<dim>1</dim>
					<dim>1</dim>
					<dim>320</dim>
				</port>
			</input>
			<output>
				<port id="2" precision="FP32" names="381,hidden_states.43">
					<dim>-1</dim>
					<dim>-1</dim>
					<dim>320</dim>
				</port>
			</output>
		</layer>
		<layer id="296" name="self.model.down_blocks.0.attentions.1.transformer_blocks.0.attn1.to_q.weight_compressed" type="Const" version="opset1">
			<data element_type="f16" shape="320, 320" offset="17978196" size="204800" />
			<output>
				<port id="0" precision="FP16" names="self.model.down_blocks.0.attentions.1.transformer_blocks.0.attn1.to_q.weight">
					<dim>320</dim>
					<dim>320</dim>
				</port>
			</output>
		</layer>
		<layer id="297" name="self.model.down_blocks.0.attentions.1.transformer_blocks.0.attn1.to_q.weight" type="Convert" version="opset1">
			<data destination_type="f32" />
			<rt_info>
				<attribute name="decompression" version="0" />
			</rt_info>
			<input>
				<port id="0" precision="FP16">
					<dim>320</dim>
					<dim>320</dim>
				</port>
			</input>
			<output>
				<port id="1" precision="FP32">
					<dim>320</dim>
					<dim>320</dim>
				</port>
			</output>
		</layer>
		<layer id="298" name="__module.model.down_blocks.0.attentions.1.transformer_blocks.0.attn1.to_q/aten::linear/MatMul" type="MatMul" version="opset1">
			<data transpose_a="false" transpose_b="true" />
			<input>
				<port id="0" precision="FP32">
					<dim>-1</dim>
					<dim>-1</dim>
					<dim>320</dim>
				</port>
				<port id="1" precision="FP32">
					<dim>320</dim>
					<dim>320</dim>
				</port>
			</input>
			<output>
				<port id="2" precision="FP32" names="389,query.9">
					<dim>-1</dim>
					<dim>-1</dim>
					<dim>320</dim>
				</port>
			</output>
		</layer>
		<layer id="299" name="Constant_61323" type="Const" version="opset1">
			<data element_type="i64" shape="4" offset="9071148" size="32" />
			<rt_info>
				<attribute name="precise" version="0" />
			</rt_info>
			<output>
				<port id="0" precision="I64">
					<dim>4</dim>
				</port>
			</output>
		</layer>
		<layer id="300" name="__module.model.down_blocks.0.attentions.1.transformer_blocks.0.attn1/aten::view/Reshape" type="Reshape" version="opset1">
			<data special_zero="true" />
			<input>
				<port id="0" precision="FP32">
					<dim>-1</dim>
					<dim>-1</dim>
					<dim>320</dim>
				</port>
				<port id="1" precision="I64">
					<dim>4</dim>
				</port>
			</input>
			<output>
				<port id="2" precision="FP32" names="401">
					<dim>-1</dim>
					<dim>-1</dim>
					<dim>8</dim>
					<dim>40</dim>
				</port>
			</output>
		</layer>
		<layer id="301" name="__module.model.down_blocks.0.attentions.1.transformer_blocks.0.attn1/aten::transpose/Constant" type="Const" version="opset1">
			<data element_type="i32" shape="4" offset="9071180" size="16" />
			<output>
				<port id="0" precision="I32">
					<dim>4</dim>
				</port>
			</output>
		</layer>
		<layer id="302" name="__module.model.down_blocks.0.attentions.1.transformer_blocks.0.attn1/aten::transpose/Transpose" type="Transpose" version="opset1">
			<input>
				<port id="0" precision="FP32">
					<dim>-1</dim>
					<dim>-1</dim>
					<dim>8</dim>
					<dim>40</dim>
				</port>
				<port id="1" precision="I32">
					<dim>4</dim>
				</port>
			</input>
			<output>
				<port id="2" precision="FP32" names="402,query.11">
					<dim>-1</dim>
					<dim>8</dim>
					<dim>-1</dim>
					<dim>40</dim>
				</port>
			</output>
		</layer>
		<layer id="303" name="self.model.down_blocks.0.attentions.1.transformer_blocks.0.attn1.to_k.weight_compressed" type="Const" version="opset1">
			<data element_type="f16" shape="320, 320" offset="18182996" size="204800" />
			<output>
				<port id="0" precision="FP16" names="self.model.down_blocks.0.attentions.1.transformer_blocks.0.attn1.to_k.weight">
					<dim>320</dim>
					<dim>320</dim>
				</port>
			</output>
		</layer>
		<layer id="304" name="self.model.down_blocks.0.attentions.1.transformer_blocks.0.attn1.to_k.weight" type="Convert" version="opset1">
			<data destination_type="f32" />
			<rt_info>
				<attribute name="decompression" version="0" />
			</rt_info>
			<input>
				<port id="0" precision="FP16">
					<dim>320</dim>
					<dim>320</dim>
				</port>
			</input>
			<output>
				<port id="1" precision="FP32">
					<dim>320</dim>
					<dim>320</dim>
				</port>
			</output>
		</layer>
		<layer id="305" name="__module.model.down_blocks.0.attentions.1.transformer_blocks.0.attn1.to_k/aten::linear/MatMul" type="MatMul" version="opset1">
			<data transpose_a="false" transpose_b="true" />
			<input>
				<port id="0" precision="FP32">
					<dim>-1</dim>
					<dim>-1</dim>
					<dim>320</dim>
				</port>
				<port id="1" precision="FP32">
					<dim>320</dim>
					<dim>320</dim>
				</port>
			</input>
			<output>
				<port id="2" precision="FP32" names="391,key.9">
					<dim>-1</dim>
					<dim>-1</dim>
					<dim>320</dim>
				</port>
			</output>
		</layer>
		<layer id="306" name="Constant_61324" type="Const" version="opset1">
			<data element_type="i64" shape="4" offset="9071148" size="32" />
			<rt_info>
				<attribute name="precise" version="0" />
			</rt_info>
			<output>
				<port id="0" precision="I64">
					<dim>4</dim>
				</port>
			</output>
		</layer>
		<layer id="307" name="__module.model.down_blocks.0.attentions.1.transformer_blocks.0.attn1/aten::view/Reshape_1" type="Reshape" version="opset1">
			<data special_zero="true" />
			<input>
				<port id="0" precision="FP32">
					<dim>-1</dim>
					<dim>-1</dim>
					<dim>320</dim>
				</port>
				<port id="1" precision="I64">
					<dim>4</dim>
				</port>
			</input>
			<output>
				<port id="2" precision="FP32" names="404">
					<dim>-1</dim>
					<dim>-1</dim>
					<dim>8</dim>
					<dim>40</dim>
				</port>
			</output>
		</layer>
		<layer id="308" name="__module.model.down_blocks.0.attentions.1.transformer_blocks.0.attn1/aten::transpose/Constant_1" type="Const" version="opset1">
			<data element_type="i32" shape="4" offset="9071180" size="16" />
			<output>
				<port id="0" precision="I32">
					<dim>4</dim>
				</port>
			</output>
		</layer>
		<layer id="309" name="__module.model.down_blocks.0.attentions.1.transformer_blocks.0.attn1/aten::transpose/Transpose_1" type="Transpose" version="opset1">
			<input>
				<port id="0" precision="FP32">
					<dim>-1</dim>
					<dim>-1</dim>
					<dim>8</dim>
					<dim>40</dim>
				</port>
				<port id="1" precision="I32">
					<dim>4</dim>
				</port>
			</input>
			<output>
				<port id="2" precision="FP32" names="405,key.11">
					<dim>-1</dim>
					<dim>8</dim>
					<dim>-1</dim>
					<dim>40</dim>
				</port>
			</output>
		</layer>
		<layer id="310" name="self.model.down_blocks.0.attentions.1.transformer_blocks.0.attn1.to_v.weight_compressed" type="Const" version="opset1">
			<data element_type="f16" shape="320, 320" offset="18387796" size="204800" />
			<output>
				<port id="0" precision="FP16" names="self.model.down_blocks.0.attentions.1.transformer_blocks.0.attn1.to_v.weight">
					<dim>320</dim>
					<dim>320</dim>
				</port>
			</output>
		</layer>
		<layer id="311" name="self.model.down_blocks.0.attentions.1.transformer_blocks.0.attn1.to_v.weight" type="Convert" version="opset1">
			<data destination_type="f32" />
			<rt_info>
				<attribute name="decompression" version="0" />
			</rt_info>
			<input>
				<port id="0" precision="FP16">
					<dim>320</dim>
					<dim>320</dim>
				</port>
			</input>
			<output>
				<port id="1" precision="FP32">
					<dim>320</dim>
					<dim>320</dim>
				</port>
			</output>
		</layer>
		<layer id="312" name="__module.model.down_blocks.0.attentions.1.transformer_blocks.0.attn1.to_v/aten::linear/MatMul" type="MatMul" version="opset1">
			<data transpose_a="false" transpose_b="true" />
			<input>
				<port id="0" precision="FP32">
					<dim>-1</dim>
					<dim>-1</dim>
					<dim>320</dim>
				</port>
				<port id="1" precision="FP32">
					<dim>320</dim>
					<dim>320</dim>
				</port>
			</input>
			<output>
				<port id="2" precision="FP32" names="393,value.9">
					<dim>-1</dim>
					<dim>-1</dim>
					<dim>320</dim>
				</port>
			</output>
		</layer>
		<layer id="313" name="Constant_61325" type="Const" version="opset1">
			<data element_type="i64" shape="4" offset="9071148" size="32" />
			<rt_info>
				<attribute name="precise" version="0" />
			</rt_info>
			<output>
				<port id="0" precision="I64">
					<dim>4</dim>
				</port>
			</output>
		</layer>
		<layer id="314" name="__module.model.down_blocks.0.attentions.1.transformer_blocks.0.attn1/aten::view/Reshape_2" type="Reshape" version="opset1">
			<data special_zero="true" />
			<input>
				<port id="0" precision="FP32">
					<dim>-1</dim>
					<dim>-1</dim>
					<dim>320</dim>
				</port>
				<port id="1" precision="I64">
					<dim>4</dim>
				</port>
			</input>
			<output>
				<port id="2" precision="FP32" names="407">
					<dim>-1</dim>
					<dim>-1</dim>
					<dim>8</dim>
					<dim>40</dim>
				</port>
			</output>
		</layer>
		<layer id="315" name="__module.model.down_blocks.0.attentions.1.transformer_blocks.0.attn1/aten::transpose/Constant_2" type="Const" version="opset1">
			<data element_type="i32" shape="4" offset="9071180" size="16" />
			<output>
				<port id="0" precision="I32">
					<dim>4</dim>
				</port>
			</output>
		</layer>
		<layer id="316" name="__module.model.down_blocks.0.attentions.1.transformer_blocks.0.attn1/aten::transpose/Transpose_2" type="Transpose" version="opset1">
			<input>
				<port id="0" precision="FP32">
					<dim>-1</dim>
					<dim>-1</dim>
					<dim>8</dim>
					<dim>40</dim>
				</port>
				<port id="1" precision="I32">
					<dim>4</dim>
				</port>
			</input>
			<output>
				<port id="2" precision="FP32" names="408,value.11">
					<dim>-1</dim>
					<dim>8</dim>
					<dim>-1</dim>
					<dim>40</dim>
				</port>
			</output>
		</layer>
		<layer id="317" name="__module.model.down_blocks.0.attentions.1.transformer_blocks.0.attn1/aten::scaled_dot_product_attention/ScaledDotProductAttention" type="ScaledDotProductAttention" version="opset13">
			<data causal="false" />
			<input>
				<port id="0" precision="FP32">
					<dim>-1</dim>
					<dim>8</dim>
					<dim>-1</dim>
					<dim>40</dim>
				</port>
				<port id="1" precision="FP32">
					<dim>-1</dim>
					<dim>8</dim>
					<dim>-1</dim>
					<dim>40</dim>
				</port>
				<port id="2" precision="FP32">
					<dim>-1</dim>
					<dim>8</dim>
					<dim>-1</dim>
					<dim>40</dim>
				</port>
			</input>
			<output>
				<port id="3" precision="FP32" names="409,hidden_states.45">
					<dim>-1</dim>
					<dim>8</dim>
					<dim>-1</dim>
					<dim>40</dim>
				</port>
			</output>
		</layer>
		<layer id="318" name="__module.model.down_blocks.0.attentions.1.transformer_blocks.0.attn1/aten::transpose/Constant_3" type="Const" version="opset1">
			<data element_type="i32" shape="4" offset="9071180" size="16" />
			<output>
				<port id="0" precision="I32">
					<dim>4</dim>
				</port>
			</output>
		</layer>
		<layer id="319" name="__module.model.down_blocks.0.attentions.1.transformer_blocks.0.attn1/aten::transpose/Transpose_3" type="Transpose" version="opset1">
			<input>
				<port id="0" precision="FP32">
					<dim>-1</dim>
					<dim>8</dim>
					<dim>-1</dim>
					<dim>40</dim>
				</port>
				<port id="1" precision="I32">
					<dim>4</dim>
				</port>
			</input>
			<output>
				<port id="2" precision="FP32" names="410">
					<dim>-1</dim>
					<dim>-1</dim>
					<dim>8</dim>
					<dim>40</dim>
				</port>
			</output>
		</layer>
		<layer id="320" name="Constant_61326" type="Const" version="opset1">
			<data element_type="i64" shape="3" offset="9480796" size="24" />
			<rt_info>
				<attribute name="precise" version="0" />
			</rt_info>
			<output>
				<port id="0" precision="I64">
					<dim>3</dim>
				</port>
			</output>
		</layer>
		<layer id="321" name="__module.model.down_blocks.0.attentions.1.transformer_blocks.0.attn1/aten::reshape/Reshape" type="Reshape" version="opset1">
			<data special_zero="true" />
			<input>
				<port id="0" precision="FP32">
					<dim>-1</dim>
					<dim>-1</dim>
					<dim>8</dim>
					<dim>40</dim>
				</port>
				<port id="1" precision="I64">
					<dim>3</dim>
				</port>
			</input>
			<output>
				<port id="2" precision="FP32" names="414,415,hidden_states.47,input.67">
					<dim>-1</dim>
					<dim>-1</dim>
					<dim>320</dim>
				</port>
			</output>
		</layer>
		<layer id="322" name="self.model.down_blocks.0.attentions.1.transformer_blocks.0.attn1.to_out.0.weight_compressed" type="Const" version="opset1">
			<data element_type="f16" shape="320, 320" offset="18592596" size="204800" />
			<output>
				<port id="0" precision="FP16" names="self.model.down_blocks.0.attentions.1.transformer_blocks.0.attn1.to_out.0.weight">
					<dim>320</dim>
					<dim>320</dim>
				</port>
			</output>
		</layer>
		<layer id="323" name="self.model.down_blocks.0.attentions.1.transformer_blocks.0.attn1.to_out.0.weight" type="Convert" version="opset1">
			<data destination_type="f32" />
			<rt_info>
				<attribute name="decompression" version="0" />
			</rt_info>
			<input>
				<port id="0" precision="FP16">
					<dim>320</dim>
					<dim>320</dim>
				</port>
			</input>
			<output>
				<port id="1" precision="FP32">
					<dim>320</dim>
					<dim>320</dim>
				</port>
			</output>
		</layer>
		<layer id="324" name="__module.model.down_blocks.0.attentions.1.transformer_blocks.0.attn1.to_out.0/aten::linear/MatMul" type="MatMul" version="opset1">
			<data transpose_a="false" transpose_b="true" />
			<input>
				<port id="0" precision="FP32">
					<dim>-1</dim>
					<dim>-1</dim>
					<dim>320</dim>
				</port>
				<port id="1" precision="FP32">
					<dim>320</dim>
					<dim>320</dim>
				</port>
			</input>
			<output>
				<port id="2" precision="FP32">
					<dim>-1</dim>
					<dim>-1</dim>
					<dim>320</dim>
				</port>
			</output>
		</layer>
		<layer id="325" name="Constant_58361_compressed" type="Const" version="opset1">
			<data element_type="f16" shape="1, 1, 320" offset="18797396" size="640" />
			<output>
				<port id="0" precision="FP16">
					<dim>1</dim>
					<dim>1</dim>
					<dim>320</dim>
				</port>
			</output>
		</layer>
		<layer id="326" name="Constant_58361" type="Convert" version="opset1">
			<data destination_type="f32" />
			<rt_info>
				<attribute name="decompression" version="0" />
			</rt_info>
			<input>
				<port id="0" precision="FP16">
					<dim>1</dim>
					<dim>1</dim>
					<dim>320</dim>
				</port>
			</input>
			<output>
				<port id="1" precision="FP32">
					<dim>1</dim>
					<dim>1</dim>
					<dim>320</dim>
				</port>
			</output>
		</layer>
		<layer id="327" name="__module.model.down_blocks.0.attentions.1.transformer_blocks.0.attn1.to_out.0/aten::linear/Add" type="Add" version="opset1">
			<data auto_broadcast="numpy" />
			<input>
				<port id="0" precision="FP32">
					<dim>-1</dim>
					<dim>-1</dim>
					<dim>320</dim>
				</port>
				<port id="1" precision="FP32">
					<dim>1</dim>
					<dim>1</dim>
					<dim>320</dim>
				</port>
			</input>
			<output>
				<port id="2" precision="FP32" names="418,420,attn_output.5,input.69">
					<dim>-1</dim>
					<dim>-1</dim>
					<dim>320</dim>
				</port>
			</output>
		</layer>
		<layer id="328" name="__module.model.down_blocks.0.attentions.1.transformer_blocks.0/aten::add/Add" type="Add" version="opset1">
			<data auto_broadcast="numpy" />
			<input>
				<port id="0" precision="FP32">
					<dim>-1</dim>
					<dim>-1</dim>
					<dim>320</dim>
				</port>
				<port id="1" precision="FP32">
					<dim>-1</dim>
					<dim>-1</dim>
					<dim>320</dim>
				</port>
			</input>
			<output>
				<port id="2" precision="FP32" names="421,input.71">
					<dim>-1</dim>
					<dim>-1</dim>
					<dim>320</dim>
				</port>
			</output>
		</layer>
		<layer id="329" name="__module.model.down_blocks.0.attentions.1.transformer_blocks.0.norm2/aten::layer_norm/Multiply" type="Const" version="opset1">
			<data element_type="i32" shape="1" offset="8865064" size="4" />
			<output>
				<port id="0" precision="I32">
					<dim>1</dim>
				</port>
			</output>
		</layer>
		<layer id="330" name="__module.model.down_blocks.0.attentions.1.transformer_blocks.0.norm2/aten::layer_norm/MVN" type="MVN" version="opset6">
			<data eps="9.9999997473787516e-06" normalize_variance="true" eps_mode="INSIDE_SQRT" />
			<input>
				<port id="0" precision="FP32">
					<dim>-1</dim>
					<dim>-1</dim>
					<dim>320</dim>
				</port>
				<port id="1" precision="I32">
					<dim>1</dim>
				</port>
			</input>
			<output>
				<port id="2" precision="FP32">
					<dim>-1</dim>
					<dim>-1</dim>
					<dim>320</dim>
				</port>
			</output>
		</layer>
		<layer id="331" name="Constant_58362_compressed" type="Const" version="opset1">
			<data element_type="f16" shape="1, 1, 320" offset="18798036" size="640" />
			<output>
				<port id="0" precision="FP16">
					<dim>1</dim>
					<dim>1</dim>
					<dim>320</dim>
				</port>
			</output>
		</layer>
		<layer id="332" name="Constant_58362" type="Convert" version="opset1">
			<data destination_type="f32" />
			<rt_info>
				<attribute name="decompression" version="0" />
			</rt_info>
			<input>
				<port id="0" precision="FP16">
					<dim>1</dim>
					<dim>1</dim>
					<dim>320</dim>
				</port>
			</input>
			<output>
				<port id="1" precision="FP32">
					<dim>1</dim>
					<dim>1</dim>
					<dim>320</dim>
				</port>
			</output>
		</layer>
		<layer id="333" name="__module.model.down_blocks.0.attentions.1.transformer_blocks.0.norm2/aten::layer_norm/Multiply_1" type="Multiply" version="opset1">
			<data auto_broadcast="numpy" />
			<input>
				<port id="0" precision="FP32">
					<dim>-1</dim>
					<dim>-1</dim>
					<dim>320</dim>
				</port>
				<port id="1" precision="FP32">
					<dim>1</dim>
					<dim>1</dim>
					<dim>320</dim>
				</port>
			</input>
			<output>
				<port id="2" precision="FP32">
					<dim>-1</dim>
					<dim>-1</dim>
					<dim>320</dim>
				</port>
			</output>
		</layer>
		<layer id="334" name="Constant_58363_compressed" type="Const" version="opset1">
			<data element_type="f16" shape="1, 1, 320" offset="18798676" size="640" />
			<output>
				<port id="0" precision="FP16">
					<dim>1</dim>
					<dim>1</dim>
					<dim>320</dim>
				</port>
			</output>
		</layer>
		<layer id="335" name="Constant_58363" type="Convert" version="opset1">
			<data destination_type="f32" />
			<rt_info>
				<attribute name="decompression" version="0" />
			</rt_info>
			<input>
				<port id="0" precision="FP16">
					<dim>1</dim>
					<dim>1</dim>
					<dim>320</dim>
				</port>
			</input>
			<output>
				<port id="1" precision="FP32">
					<dim>1</dim>
					<dim>1</dim>
					<dim>320</dim>
				</port>
			</output>
		</layer>
…
		<edge from-layer="2637" from-port="0" to-layer="2638" to-port="0" />
		<edge from-layer="2638" from-port="1" to-layer="2639" to-port="1" />
		<edge from-layer="2639" from-port="2" to-layer="2640" to-port="0" />
		<edge from-layer="2640" from-port="2" to-layer="2642" to-port="0" />
		<edge from-layer="2641" from-port="0" to-layer="2642" to-port="1" />
		<edge from-layer="2642" from-port="2" to-layer="2657" to-port="0" />
		<edge from-layer="2643" from-port="0" to-layer="2644" to-port="0" />
		<edge from-layer="2644" from-port="1" to-layer="2645" to-port="1" />
		<edge from-layer="2645" from-port="2" to-layer="2647" to-port="0" />
		<edge from-layer="2646" from-port="0" to-layer="2647" to-port="1" />
		<edge from-layer="2647" from-port="2" to-layer="2649" to-port="0" />
		<edge from-layer="2648" from-port="0" to-layer="2649" to-port="1" />
		<edge from-layer="2649" from-port="2" to-layer="2657" to-port="1" />
		<edge from-layer="2650" from-port="0" to-layer="2651" to-port="0" />
		<edge from-layer="2651" from-port="1" to-layer="2652" to-port="1" />
		<edge from-layer="2652" from-port="2" to-layer="2654" to-port="0" />
		<edge from-layer="2653" from-port="0" to-layer="2654" to-port="1" />
		<edge from-layer="2654" from-port="2" to-layer="2656" to-port="0" />
		<edge from-layer="2655" from-port="0" to-layer="2656" to-port="1" />
		<edge from-layer="2656" from-port="2" to-layer="2657" to-port="2" />
		<edge from-layer="2657" from-port="3" to-layer="2659" to-port="0" />
		<edge from-layer="2658" from-port="0" to-layer="2659" to-port="1" />
		<edge from-layer="2659" from-port="2" to-layer="2661" to-port="0" />
		<edge from-layer="2660" from-port="0" to-layer="2661" to-port="1" />
		<edge from-layer="2661" from-port="2" to-layer="2664" to-port="0" />
		<edge from-layer="2662" from-port="0" to-layer="2663" to-port="0" />
		<edge from-layer="2663" from-port="1" to-layer="2664" to-port="1" />
		<edge from-layer="2664" from-port="2" to-layer="2667" to-port="0" />
		<edge from-layer="2665" from-port="0" to-layer="2666" to-port="0" />
		<edge from-layer="2666" from-port="1" to-layer="2667" to-port="1" />
		<edge from-layer="2667" from-port="2" to-layer="2668" to-port="0" />
		<edge from-layer="2668" from-port="2" to-layer="2670" to-port="0" />
		<edge from-layer="2668" from-port="2" to-layer="2701" to-port="1" />
		<edge from-layer="2669" from-port="0" to-layer="2670" to-port="1" />
		<edge from-layer="2670" from-port="2" to-layer="2672" to-port="0" />
		<edge from-layer="2671" from-port="0" to-layer="2672" to-port="1" />
		<edge from-layer="2672" from-port="2" to-layer="2675" to-port="0" />
		<edge from-layer="2673" from-port="0" to-layer="2674" to-port="0" />
		<edge from-layer="2674" from-port="1" to-layer="2675" to-port="1" />
		<edge from-layer="2675" from-port="2" to-layer="2678" to-port="0" />
		<edge from-layer="2676" from-port="0" to-layer="2677" to-port="0" />
		<edge from-layer="2677" from-port="1" to-layer="2678" to-port="1" />
		<edge from-layer="2678" from-port="2" to-layer="2681" to-port="0" />
		<edge from-layer="2679" from-port="0" to-layer="2680" to-port="0" />
		<edge from-layer="2680" from-port="1" to-layer="2681" to-port="1" />
		<edge from-layer="2681" from-port="2" to-layer="2682" to-port="0" />
		<edge from-layer="2681" from-port="2" to-layer="2692" to-port="0" />
		<edge from-layer="2682" from-port="1" to-layer="2684" to-port="0" />
		<edge from-layer="2683" from-port="0" to-layer="2684" to-port="2" />
		<edge from-layer="2683" from-port="0" to-layer="2687" to-port="1" />
		<edge from-layer="2684" from-port="3" to-layer="2686" to-port="0" />
		<edge from-layer="2684" from-port="3" to-layer="2685" to-port="0" />
		<edge from-layer="2685" from-port="2" to-layer="2689" to-port="0" />
		<edge from-layer="2686" from-port="2" to-layer="2687" to-port="0" />
		<edge from-layer="2687" from-port="2" to-layer="2688" to-port="0" />
		<edge from-layer="2688" from-port="1" to-layer="2689" to-port="1" />
		<edge from-layer="2689" from-port="2" to-layer="2691" to-port="0" />
		<edge from-layer="2690" from-port="0" to-layer="2691" to-port="1" />
		<edge from-layer="2691" from-port="2" to-layer="2692" to-port="2" />
		<edge from-layer="2692" from-port="3" to-layer="2694" to-port="0" />
		<edge from-layer="2692" from-port="4" to-layer="2693" to-port="0" />
		<edge from-layer="2693" from-port="1" to-layer="2694" to-port="1" />
		<edge from-layer="2694" from-port="2" to-layer="2697" to-port="0" />
		<edge from-layer="2695" from-port="0" to-layer="2696" to-port="0" />
		<edge from-layer="2696" from-port="1" to-layer="2697" to-port="1" />
		<edge from-layer="2697" from-port="2" to-layer="2700" to-port="0" />
		<edge from-layer="2698" from-port="0" to-layer="2699" to-port="0" />
		<edge from-layer="2699" from-port="1" to-layer="2700" to-port="1" />
		<edge from-layer="2700" from-port="2" to-layer="2701" to-port="0" />
		<edge from-layer="2701" from-port="2" to-layer="2708" to-port="0" />
		<edge from-layer="2702" from-port="1" to-layer="2705" to-port="0" />
		<edge from-layer="2703" from-port="0" to-layer="2705" to-port="1" />
		<edge from-layer="2704" from-port="0" to-layer="2705" to-port="2" />
		<edge from-layer="2705" from-port="3" to-layer="2707" to-port="0" />
		<edge from-layer="2706" from-port="0" to-layer="2707" to-port="1" />
		<edge from-layer="2707" from-port="2" to-layer="2708" to-port="1" />
		<edge from-layer="2708" from-port="2" to-layer="2710" to-port="0" />
		<edge from-layer="2709" from-port="0" to-layer="2710" to-port="1" />
		<edge from-layer="2710" from-port="2" to-layer="2713" to-port="0" />
		<edge from-layer="2711" from-port="0" to-layer="2712" to-port="0" />
		<edge from-layer="2712" from-port="1" to-layer="2713" to-port="1" />
		<edge from-layer="2713" from-port="2" to-layer="2716" to-port="0" />
		<edge from-layer="2714" from-port="0" to-layer="2715" to-port="0" />
		<edge from-layer="2715" from-port="1" to-layer="2716" to-port="1" />
		<edge from-layer="2716" from-port="2" to-layer="2717" to-port="0" />
		<edge from-layer="2717" from-port="2" to-layer="2720" to-port="0" />
		<edge from-layer="2718" from-port="0" to-layer="2720" to-port="1" />
		<edge from-layer="2719" from-port="0" to-layer="2720" to-port="2" />
		<edge from-layer="2720" from-port="3" to-layer="2723" to-port="0" />
		<edge from-layer="2721" from-port="0" to-layer="2722" to-port="0" />
		<edge from-layer="2722" from-port="1" to-layer="2723" to-port="1" />
		<edge from-layer="2723" from-port="2" to-layer="2726" to-port="0" />
		<edge from-layer="2724" from-port="0" to-layer="2725" to-port="0" />
		<edge from-layer="2725" from-port="1" to-layer="2726" to-port="1" />
		<edge from-layer="2726" from-port="2" to-layer="2727" to-port="0" />
		<edge from-layer="2727" from-port="2" to-layer="2738" to-port="0" />
		<edge from-layer="2727" from-port="2" to-layer="2730" to-port="0" />
		<edge from-layer="2728" from-port="0" to-layer="2729" to-port="0" />
		<edge from-layer="2729" from-port="1" to-layer="2730" to-port="1" />
		<edge from-layer="2730" from-port="2" to-layer="2733" to-port="0" />
		<edge from-layer="2731" from-port="0" to-layer="2732" to-port="0" />
		<edge from-layer="2732" from-port="1" to-layer="2733" to-port="1" />
		<edge from-layer="2733" from-port="2" to-layer="2767" to-port="0" />
		<edge from-layer="2734" from-port="0" to-layer="2735" to-port="0" />
		<edge from-layer="2735" from-port="1" to-layer="2738" to-port="1" />
		<edge from-layer="2736" from-port="0" to-layer="2737" to-port="0" />
		<edge from-layer="2737" from-port="1" to-layer="2738" to-port="2" />
		<edge from-layer="2738" from-port="3" to-layer="2739" to-port="0" />
		<edge from-layer="2739" from-port="1" to-layer="2742" to-port="0" />
		<edge from-layer="2740" from-port="0" to-layer="2741" to-port="0" />
		<edge from-layer="2741" from-port="1" to-layer="2742" to-port="1" />
		<edge from-layer="2742" from-port="2" to-layer="2745" to-port="0" />
		<edge from-layer="2743" from-port="0" to-layer="2744" to-port="0" />
		<edge from-layer="2744" from-port="1" to-layer="2745" to-port="1" />
		<edge from-layer="2745" from-port="2" to-layer="2754" to-port="0" />
		<edge from-layer="2746" from-port="0" to-layer="2747" to-port="0" />
		<edge from-layer="2747" from-port="1" to-layer="2748" to-port="1" />
		<edge from-layer="2748" from-port="2" to-layer="2751" to-port="0" />
		<edge from-layer="2749" from-port="0" to-layer="2750" to-port="0" />
		<edge from-layer="2750" from-port="1" to-layer="2751" to-port="1" />
		<edge from-layer="2751" from-port="2" to-layer="2752" to-port="0" />
		<edge from-layer="2752" from-port="2" to-layer="2753" to-port="0" />
		<edge from-layer="2753" from-port="2" to-layer="2754" to-port="1" />
		<edge from-layer="2754" from-port="2" to-layer="2759" to-port="0" />
		<edge from-layer="2755" from-port="0" to-layer="2756" to-port="0" />
		<edge from-layer="2756" from-port="1" to-layer="2759" to-port="1" />
		<edge from-layer="2757" from-port="0" to-layer="2758" to-port="0" />
		<edge from-layer="2758" from-port="1" to-layer="2759" to-port="2" />
		<edge from-layer="2759" from-port="3" to-layer="2760" to-port="0" />
		<edge from-layer="2760" from-port="1" to-layer="2763" to-port="0" />
		<edge from-layer="2761" from-port="0" to-layer="2762" to-port="0" />
		<edge from-layer="2762" from-port="1" to-layer="2763" to-port="1" />
		<edge from-layer="2763" from-port="2" to-layer="2766" to-port="0" />
		<edge from-layer="2764" from-port="0" to-layer="2765" to-port="0" />
		<edge from-layer="2765" from-port="1" to-layer="2766" to-port="1" />
		<edge from-layer="2766" from-port="2" to-layer="2767" to-port="1" />
		<edge from-layer="2767" from-port="2" to-layer="2897" to-port="0" />
		<edge from-layer="2767" from-port="2" to-layer="2772" to-port="0" />
		<edge from-layer="2767" from-port="2" to-layer="2912" to-port="1" />
		<edge from-layer="2768" from-port="0" to-layer="2769" to-port="0" />
		<edge from-layer="2769" from-port="1" to-layer="2772" to-port="1" />
		<edge from-layer="2770" from-port="0" to-layer="2771" to-port="0" />
		<edge from-layer="2771" from-port="1" to-layer="2772" to-port="2" />
		<edge from-layer="2772" from-port="3" to-layer="2775" to-port="0" />
		<edge from-layer="2773" from-port="0" to-layer="2774" to-port="0" />
		<edge from-layer="2774" from-port="1" to-layer="2775" to-port="1" />
		<edge from-layer="2775" from-port="2" to-layer="2778" to-port="0" />
		<edge from-layer="2776" from-port="0" to-layer="2777" to-port="0" />
		<edge from-layer="2777" from-port="1" to-layer="2778" to-port="1" />
		<edge from-layer="2778" from-port="2" to-layer="2780" to-port="0" />
		<edge from-layer="2779" from-port="0" to-layer="2780" to-port="1" />
		<edge from-layer="2780" from-port="2" to-layer="2782" to-port="0" />
		<edge from-layer="2781" from-port="0" to-layer="2782" to-port="1" />
		<edge from-layer="2782" from-port="2" to-layer="2784" to-port="0" />
		<edge from-layer="2782" from-port="2" to-layer="2823" to-port="1" />
		<edge from-layer="2783" from-port="0" to-layer="2784" to-port="1" />
		<edge from-layer="2784" from-port="2" to-layer="2787" to-port="0" />
		<edge from-layer="2785" from-port="0" to-layer="2786" to-port="0" />
		<edge from-layer="2786" from-port="1" to-layer="2787" to-port="1" />
		<edge from-layer="2787" from-port="2" to-layer="2790" to-port="0" />
		<edge from-layer="2788" from-port="0" to-layer="2789" to-port="0" />
		<edge from-layer="2789" from-port="1" to-layer="2790" to-port="1" />
		<edge from-layer="2790" from-port="2" to-layer="2807" to-port="0" />
		<edge from-layer="2790" from-port="2" to-layer="2800" to-port="0" />
		<edge from-layer="2790" from-port="2" to-layer="2793" to-port="0" />
		<edge from-layer="2791" from-port="0" to-layer="2792" to-port="0" />
		<edge from-layer="2792" from-port="1" to-layer="2793" to-port="1" />
		<edge from-layer="2793" from-port="2" to-layer="2795" to-port="0" />
		<edge from-layer="2794" from-port="0" to-layer="2795" to-port="1" />
		<edge from-layer="2795" from-port="2" to-layer="2797" to-port="0" />
		<edge from-layer="2796" from-port="0" to-layer="2797" to-port="1" />
		<edge from-layer="2797" from-port="2" to-layer="2812" to-port="0" />
		<edge from-layer="2798" from-port="0" to-layer="2799" to-port="0" />
		<edge from-layer="2799" from-port="1" to-layer="2800" to-port="1" />
		<edge from-layer="2800" from-port="2" to-layer="2802" to-port="0" />
		<edge from-layer="2801" from-port="0" to-layer="2802" to-port="1" />
		<edge from-layer="2802" from-port="2" to-layer="2804" to-port="0" />
		<edge from-layer="2803" from-port="0" to-layer="2804" to-port="1" />
		<edge from-layer="2804" from-port="2" to-layer="2812" to-port="1" />
		<edge from-layer="2805" from-port="0" to-layer="2806" to-port="0" />
		<edge from-layer="2806" from-port="1" to-layer="2807" to-port="1" />
		<edge from-layer="2807" from-port="2" to-layer="2809" to-port="0" />
		<edge from-layer="2808" from-port="0" to-layer="2809" to-port="1" />
		<edge from-layer="2809" from-port="2" to-layer="2811" to-port="0" />
		<edge from-layer="2810" from-port="0" to-layer="2811" to-port="1" />
		<edge from-layer="2811" from-port="2" to-layer="2812" to-port="2" />
		<edge from-layer="2812" from-port="3" to-layer="2814" to-port="0" />
		<edge from-layer="2813" from-port="0" to-layer="2814" to-port="1" />
		<edge from-layer="2814" from-port="2" to-layer="2816" to-port="0" />
		<edge from-layer="2815" from-port="0" to-layer="2816" to-port="1" />
		<edge from-layer="2816" from-port="2" to-layer="2819" to-port="0" />
		<edge from-layer="2817" from-port="0" to-layer="2818" to-port="0" />
		<edge from-layer="2818" from-port="1" to-layer="2819" to-port="1" />
		<edge from-layer="2819" from-port="2" to-layer="2822" to-port="0" />
		<edge from-layer="2820" from-port="0" to-layer="2821" to-port="0" />
		<edge from-layer="2821" from-port="1" to-layer="2822" to-port="1" />
		<edge from-layer="2822" from-port="2" to-layer="2823" to-port="0" />
		<edge from-layer="2823" from-port="2" to-layer="2825" to-port="0" />
		<edge from-layer="2823" from-port="2" to-layer="2863" to-port="1" />
		<edge from-layer="2824" from-port="0" to-layer="2825" to-port="1" />
		<edge from-layer="2825" from-port="2" to-layer="2828" to-port="0" />
		<edge from-layer="2826" from-port="0" to-layer="2827" to-port="0" />
		<edge from-layer="2827" from-port="1" to-layer="2828" to-port="1" />
		<edge from-layer="2828" from-port="2" to-layer="2831" to-port="0" />
		<edge from-layer="2829" from-port="0" to-layer="2830" to-port="0" />
		<edge from-layer="2830" from-port="1" to-layer="2831" to-port="1" />
		<edge from-layer="2831" from-port="2" to-layer="2834" to-port="0" />
		<edge from-layer="2832" from-port="0" to-layer="2833" to-port="0" />
		<edge from-layer="2833" from-port="1" to-layer="2834" to-port="1" />
		<edge from-layer="2834" from-port="2" to-layer="2835" to-port="0" />
		<edge from-layer="2835" from-port="2" to-layer="2837" to-port="0" />
		<edge from-layer="2836" from-port="0" to-layer="2837" to-port="1" />
		<edge from-layer="2837" from-port="2" to-layer="2852" to-port="0" />
		<edge from-layer="2838" from-port="0" to-layer="2839" to-port="0" />
		<edge from-layer="2839" from-port="1" to-layer="2840" to-port="1" />
		<edge from-layer="2840" from-port="2" to-layer="2842" to-port="0" />
		<edge from-layer="2841" from-port="0" to-layer="2842" to-port="1" />
		<edge from-layer="2842" from-port="2" to-layer="2844" to-port="0" />
		<edge from-layer="2843" from-port="0" to-layer="2844" to-port="1" />
		<edge from-layer="2844" from-port="2" to-layer="2852" to-port="1" />
		<edge from-layer="2845" from-port="0" to-layer="2846" to-port="0" />
		<edge from-layer="2846" from-port="1" to-layer="2847" to-port="1" />
		<edge from-layer="2847" from-port="2" to-layer="2849" to-port="0" />
		<edge from-layer="2848" from-port="0" to-layer="2849" to-port="1" />
		<edge from-layer="2849" from-port="2" to-layer="2851" to-port="0" />
		<edge from-layer="2850" from-port="0" to-layer="2851" to-port="1" />
		<edge from-layer="2851" from-port="2" to-layer="2852" to-port="2" />
		<edge from-layer="2852" from-port="3" to-layer="2854" to-port="0" />
		<edge from-layer="2853" from-port="0" to-layer="2854" to-port="1" />
		<edge from-layer="2854" from-port="2" to-layer="2856" to-port="0" />
		<edge from-layer="2855" from-port="0" to-layer="2856" to-port="1" />
		<edge from-layer="2856" from-port="2" to-layer="2859" to-port="0" />
		<edge from-layer="2857" from-port="0" to-layer="2858" to-port="0" />
		<edge from-layer="2858" from-port="1" to-layer="2859" to-port="1" />
		<edge from-layer="2859" from-port="2" to-layer="2862" to-port="0" />
		<edge from-layer="2860" from-port="0" to-layer="2861" to-port="0" />
		<edge from-layer="2861" from-port="1" to-layer="2862" to-port="1" />
		<edge from-layer="2862" from-port="2" to-layer="2863" to-port="0" />
		<edge from-layer="2863" from-port="2" to-layer="2896" to-port="1" />
		<edge from-layer="2863" from-port="2" to-layer="2865" to-port="0" />
		<edge from-layer="2864" from-port="0" to-layer="2865" to-port="1" />
		<edge from-layer="2865" from-port="2" to-layer="2867" to-port="0" />
		<edge from-layer="2866" from-port="0" to-layer="2867" to-port="1" />
		<edge from-layer="2867" from-port="2" to-layer="2870" to-port="0" />
		<edge from-layer="2868" from-port="0" to-layer="2869" to-port="0" />
		<edge from-layer="2869" from-port="1" to-layer="2870" to-port="1" />
		<edge from-layer="2870" from-port="2" to-layer="2873" to-port="0" />
		<edge from-layer="2871" from-port="0" to-layer="2872" to-port="0" />
		<edge from-layer="2872" from-port="1" to-layer="2873" to-port="1" />
		<edge from-layer="2873" from-port="2" to-layer="2876" to-port="0" />
		<edge from-layer="2874" from-port="0" to-layer="2875" to-port="0" />
		<edge from-layer="2875" from-port="1" to-layer="2876" to-port="1" />
		<edge from-layer="2876" from-port="2" to-layer="2877" to-port="0" />
		<edge from-layer="2876" from-port="2" to-layer="2887" to-port="0" />
		<edge from-layer="2877" from-port="1" to-layer="2879" to-port="0" />
		<edge from-layer="2878" from-port="0" to-layer="2879" to-port="2" />
		<edge from-layer="2878" from-port="0" to-layer="2882" to-port="1" />
		<edge from-layer="2879" from-port="3" to-layer="2880" to-port="0" />
		<edge from-layer="2879" from-port="3" to-layer="2881" to-port="0" />
		<edge from-layer="2880" from-port="2" to-layer="2884" to-port="0" />
		<edge from-layer="2881" from-port="2" to-layer="2882" to-port="0" />
		<edge from-layer="2882" from-port="2" to-layer="2883" to-port="0" />
		<edge from-layer="2883" from-port="1" to-layer="2884" to-port="1" />
		<edge from-layer="2884" from-port="2" to-layer="2886" to-port="0" />
		<edge from-layer="2885" from-port="0" to-layer="2886" to-port="1" />
		<edge from-layer="2886" from-port="2" to-layer="2887" to-port="2" />
		<edge from-layer="2887" from-port="4" to-layer="2888" to-port="0" />
		<edge from-layer="2887" from-port="3" to-layer="2889" to-port="0" />
		<edge from-layer="2888" from-port="1" to-layer="2889" to-port="1" />
		<edge from-layer="2889" from-port="2" to-layer="2892" to-port="0" />
		<edge from-layer="2890" from-port="0" to-layer="2891" to-port="0" />
		<edge from-layer="2891" from-port="1" to-layer="2892" to-port="1" />
		<edge from-layer="2892" from-port="2" to-layer="2895" to-port="0" />
		<edge from-layer="2893" from-port="0" to-layer="2894" to-port="0" />
		<edge from-layer="2894" from-port="1" to-layer="2895" to-port="1" />
		<edge from-layer="2895" from-port="2" to-layer="2896" to-port="0" />
		<edge from-layer="2896" from-port="2" to-layer="2903" to-port="0" />
		<edge from-layer="2897" from-port="1" to-layer="2900" to-port="0" />
		<edge from-layer="2898" from-port="0" to-layer="2900" to-port="1" />
		<edge from-layer="2899" from-port="0" to-layer="2900" to-port="2" />
		<edge from-layer="2900" from-port="3" to-layer="2902" to-port="0" />
		<edge from-layer="2901" from-port="0" to-layer="2902" to-port="1" />
		<edge from-layer="2902" from-port="2" to-layer="2903" to-port="1" />
		<edge from-layer="2903" from-port="2" to-layer="2905" to-port="0" />
		<edge from-layer="2904" from-port="0" to-layer="2905" to-port="1" />
		<edge from-layer="2905" from-port="2" to-layer="2908" to-port="0" />
		<edge from-layer="2906" from-port="0" to-layer="2907" to-port="0" />
		<edge from-layer="2907" from-port="1" to-layer="2908" to-port="1" />
		<edge from-layer="2908" from-port="2" to-layer="2911" to-port="0" />
		<edge from-layer="2909" from-port="0" to-layer="2910" to-port="0" />
		<edge from-layer="2910" from-port="1" to-layer="2911" to-port="1" />
		<edge from-layer="2911" from-port="2" to-layer="2912" to-port="0" />
		<edge from-layer="2912" from-port="2" to-layer="2913" to-port="0" />
		<edge from-layer="2913" from-port="2" to-layer="2924" to-port="0" />
		<edge from-layer="2913" from-port="2" to-layer="2916" to-port="0" />
		<edge from-layer="2914" from-port="0" to-layer="2915" to-port="0" />
		<edge from-layer="2915" from-port="1" to-layer="2916" to-port="1" />
		<edge from-layer="2916" from-port="2" to-layer="2919" to-port="0" />
		<edge from-layer="2917" from-port="0" to-layer="2918" to-port="0" />
		<edge from-layer="2918" from-port="1" to-layer="2919" to-port="1" />
		<edge from-layer="2919" from-port="2" to-layer="2953" to-port="0" />
		<edge from-layer="2920" from-port="0" to-layer="2921" to-port="0" />
		<edge from-layer="2921" from-port="1" to-layer="2924" to-port="1" />
		<edge from-layer="2922" from-port="0" to-layer="2923" to-port="0" />
		<edge from-layer="2923" from-port="1" to-layer="2924" to-port="2" />
		<edge from-layer="2924" from-port="3" to-layer="2925" to-port="0" />
		<edge from-layer="2925" from-port="1" to-layer="2928" to-port="0" />
		<edge from-layer="2926" from-port="0" to-layer="2927" to-port="0" />
		<edge from-layer="2927" from-port="1" to-layer="2928" to-port="1" />
		<edge from-layer="2928" from-port="2" to-layer="2931" to-port="0" />
		<edge from-layer="2929" from-port="0" to-layer="2930" to-port="0" />
		<edge from-layer="2930" from-port="1" to-layer="2931" to-port="1" />
		<edge from-layer="2931" from-port="2" to-layer="2940" to-port="0" />
		<edge from-layer="2932" from-port="0" to-layer="2933" to-port="0" />
		<edge from-layer="2933" from-port="1" to-layer="2934" to-port="1" />
		<edge from-layer="2934" from-port="2" to-layer="2937" to-port="0" />
		<edge from-layer="2935" from-port="0" to-layer="2936" to-port="0" />
		<edge from-layer="2936" from-port="1" to-layer="2937" to-port="1" />
		<edge from-layer="2937" from-port="2" to-layer="2938" to-port="0" />
		<edge from-layer="2938" from-port="2" to-layer="2939" to-port="0" />
		<edge from-layer="2939" from-port="2" to-layer="2940" to-port="1" />
		<edge from-layer="2940" from-port="2" to-layer="2945" to-port="0" />
		<edge from-layer="2941" from-port="0" to-layer="2942" to-port="0" />
		<edge from-layer="2942" from-port="1" to-layer="2945" to-port="1" />
		<edge from-layer="2943" from-port="0" to-layer="2944" to-port="0" />
		<edge from-layer="2944" from-port="1" to-layer="2945" to-port="2" />
		<edge from-layer="2945" from-port="3" to-layer="2946" to-port="0" />
		<edge from-layer="2946" from-port="1" to-layer="2949" to-port="0" />
		<edge from-layer="2947" from-port="0" to-layer="2948" to-port="0" />
		<edge from-layer="2948" from-port="1" to-layer="2949" to-port="1" />
		<edge from-layer="2949" from-port="2" to-layer="2952" to-port="0" />
		<edge from-layer="2950" from-port="0" to-layer="2951" to-port="0" />
		<edge from-layer="2951" from-port="1" to-layer="2952" to-port="1" />
		<edge from-layer="2952" from-port="2" to-layer="2953" to-port="1" />
		<edge from-layer="2953" from-port="2" to-layer="2958" to-port="0" />
		<edge from-layer="2953" from-port="2" to-layer="3097" to-port="1" />
		<edge from-layer="2953" from-port="2" to-layer="3082" to-port="0" />
		<edge from-layer="2954" from-port="0" to-layer="2955" to-port="0" />
		<edge from-layer="2955" from-port="1" to-layer="2958" to-port="1" />
		<edge from-layer="2956" from-port="0" to-layer="2957" to-port="0" />
		<edge from-layer="2957" from-port="1" to-layer="2958" to-port="2" />
		<edge from-layer="2958" from-port="3" to-layer="2961" to-port="0" />
		<edge from-layer="2959" from-port="0" to-layer="2960" to-port="0" />
		<edge from-layer="2960" from-port="1" to-layer="2961" to-port="1" />
		<edge from-layer="2961" from-port="2" to-layer="2964" to-port="0" />
		<edge from-layer="2962" from-port="0" to-layer="2963" to-port="0" />
		<edge from-layer="2963" from-port="1" to-layer="2964" to-port="1" />
		<edge from-layer="2964" from-port="2" to-layer="2966" to-port="0" />
		<edge from-layer="2965" from-port="0" to-layer="2966" to-port="1" />
		<edge from-layer="2966" from-port="2" to-layer="2968" to-port="0" />
		<edge from-layer="2967" from-port="0" to-layer="2968" to-port="1" />
		<edge from-layer="2968" from-port="2" to-layer="2970" to-port="0" />
		<edge from-layer="2968" from-port="2" to-layer="3009" to-port="1" />
		<edge from-layer="2969" from-port="0" to-layer="2970" to-port="1" />
		<edge from-layer="2970" from-port="2" to-layer="2973" to-port="0" />
		<edge from-layer="2971" from-port="0" to-layer="2972" to-port="0" />
		<edge from-layer="2972" from-port="1" to-layer="2973" to-port="1" />
		<edge from-layer="2973" from-port="2" to-layer="2976" to-port="0" />
		<edge from-layer="2974" from-port="0" to-layer="2975" to-port="0" />
		<edge from-layer="2975" from-port="1" to-layer="2976" to-port="1" />
		<edge from-layer="2976" from-port="2" to-layer="2979" to-port="0" />
		<edge from-layer="2976" from-port="2" to-layer="2986" to-port="0" />
		<edge from-layer="2976" from-port="2" to-layer="2993" to-port="0" />
		<edge from-layer="2977" from-port="0" to-layer="2978" to-port="0" />
		<edge from-layer="2978" from-port="1" to-layer="2979" to-port="1" />
		<edge from-layer="2979" from-port="2" to-layer="2981" to-port="0" />
		<edge from-layer="2980" from-port="0" to-layer="2981" to-port="1" />
		<edge from-layer="2981" from-port="2" to-layer="2983" to-port="0" />
		<edge from-layer="2982" from-port="0" to-layer="2983" to-port="1" />
		<edge from-layer="2983" from-port="2" to-layer="2998" to-port="0" />
		<edge from-layer="2984" from-port="0" to-layer="2985" to-port="0" />
		<edge from-layer="2985" from-port="1" to-layer="2986" to-port="1" />
		<edge from-layer="2986" from-port="2" to-layer="2988" to-port="0" />
		<edge from-layer="2987" from-port="0" to-layer="2988" to-port="1" />
		<edge from-layer="2988" from-port="2" to-layer="2990" to-port="0" />
		<edge from-layer="2989" from-port="0" to-layer="2990" to-port="1" />
		<edge from-layer="2990" from-port="2" to-layer="2998" to-port="1" />
		<edge from-layer="2991" from-port="0" to-layer="2992" to-port="0" />
		<edge from-layer="2992" from-port="1" to-layer="2993" to-port="1" />
		<edge from-layer="2993" from-port="2" to-layer="2995" to-port="0" />
		<edge from-layer="2994" from-port="0" to-layer="2995" to-port="1" />
		<edge from-layer="2995" from-port="2" to-layer="2997" to-port="0" />
		<edge from-layer="2996" from-port="0" to-layer="2997" to-port="1" />
		<edge from-layer="2997" from-port="2" to-layer="2998" to-port="2" />
		<edge from-layer="2998" from-port="3" to-layer="3000" to-port="0" />
		<edge from-layer="2999" from-port="0" to-layer="3000" to-port="1" />
		<edge from-layer="3000" from-port="2" to-layer="3002" to-port="0" />
		<edge from-layer="3001" from-port="0" to-layer="3002" to-port="1" />
		<edge from-layer="3002" from-port="2" to-layer="3005" to-port="0" />
		<edge from-layer="3003" from-port="0" to-layer="3004" to-port="0" />
		<edge from-layer="3004" from-port="1" to-layer="3005" to-port="1" />
		<edge from-layer="3005" from-port="2" to-layer="3008" to-port="0" />
		<edge from-layer="3006" from-port="0" to-layer="3007" to-port="0" />
		<edge from-layer="3007" from-port="1" to-layer="3008" to-port="1" />
		<edge from-layer="3008" from-port="2" to-layer="3009" to-port="0" />
		<edge from-layer="3009" from-port="2" to-layer="3048" to-port="1" />
		<edge from-layer="3009" from-port="2" to-layer="3011" to-port="0" />
		<edge from-layer="3010" from-port="0" to-layer="3011" to-port="1" />
		<edge from-layer="3011" from-port="2" to-layer="3014" to-port="0" />
		<edge from-layer="3012" from-port="0" to-layer="3013" to-port="0" />
		<edge from-layer="3013" from-port="1" to-layer="3014" to-port="1" />
		<edge from-layer="3014" from-port="2" to-layer="3017" to-port="0" />
		<edge from-layer="3015" from-port="0" to-layer="3016" to-port="0" />
		<edge from-layer="3016" from-port="1" to-layer="3017" to-port="1" />
		<edge from-layer="3017" from-port="2" to-layer="3020" to-port="0" />
		<edge from-layer="3018" from-port="0" to-layer="3019" to-port="0" />
		<edge from-layer="3019" from-port="1" to-layer="3020" to-port="1" />
		<edge from-layer="3020" from-port="2" to-layer="3021" to-port="0" />
		<edge from-layer="3021" from-port="2" to-layer="3023" to-port="0" />
		<edge from-layer="3022" from-port="0" to-layer="3023" to-port="1" />
		<edge from-layer="3023" from-port="2" to-layer="3038" to-port="0" />
		<edge from-layer="3024" from-port="0" to-layer="3025" to-port="0" />
		<edge from-layer="3025" from-port="1" to-layer="3026" to-port="1" />
		<edge from-layer="3026" from-port="2" to-layer="3028" to-port="0" />
		<edge from-layer="3027" from-port="0" to-layer="3028" to-port="1" />
		<edge from-layer="3028" from-port="2" to-layer="3030" to-port="0" />
		<edge from-layer="3029" from-port="0" to-layer="3030" to-port="1" />
		<edge from-layer="3030" from-port="2" to-layer="3038" to-port="1" />
		<edge from-layer="3031" from-port="0" to-layer="3032" to-port="0" />
		<edge from-layer="3032" from-port="1" to-layer="3033" to-port="1" />
		<edge from-layer="3033" from-port="2" to-layer="3035" to-port="0" />
		<edge from-layer="3034" from-port="0" to-layer="3035" to-port="1" />
		<edge from-layer="3035" from-port="2" to-layer="3037" to-port="0" />
		<edge from-layer="3036" from-port="0" to-layer="3037" to-port="1" />
		<edge from-layer="3037" from-port="2" to-layer="3038" to-port="2" />
		<edge from-layer="3038" from-port="3" to-layer="3040" to-port="0" />
		<edge from-layer="3039" from-port="0" to-layer="3040" to-port="1" />
		<edge from-layer="3040" from-port="2" to-layer="3042" to-port="0" />
		<edge from-layer="3041" from-port="0" to-layer="3042" to-port="1" />
		<edge from-layer="3042" from-port="2" to-layer="3045" to-port="0" />
		<edge from-layer="3043" from-port="0" to-layer="3044" to-port="0" />
		<edge from-layer="3044" from-port="1" to-layer="3045" to-port="1" />
		<edge from-layer="3045" from-port="2" to-layer="3047" to-port="0" />
		<edge from-layer="3046" from-port="0" to-layer="3047" to-port="1" />
		<edge from-layer="3047" from-port="2" to-layer="3048" to-port="0" />
		<edge from-layer="3048" from-port="2" to-layer="3050" to-port="0" />
		<edge from-layer="3048" from-port="2" to-layer="3081" to-port="1" />
		<edge from-layer="3049" from-port="0" to-layer="3050" to-port="1" />
		<edge from-layer="3050" from-port="2" to-layer="3052" to-port="0" />
		<edge from-layer="3051" from-port="0" to-layer="3052" to-port="1" />
		<edge from-layer="3052" from-port="2" to-layer="3055" to-port="0" />
		<edge from-layer="3053" from-port="0" to-layer="3054" to-port="0" />
		<edge from-layer="3054" from-port="1" to-layer="3055" to-port="1" />
		<edge from-layer="3055" from-port="2" to-layer="3058" to-port="0" />
		<edge from-layer="3056" from-port="0" to-layer="3057" to-port="0" />
		<edge from-layer="3057" from-port="1" to-layer="3058" to-port="1" />
		<edge from-layer="3058" from-port="2" to-layer="3061" to-port="0" />
		<edge from-layer="3059" from-port="0" to-layer="3060" to-port="0" />
		<edge from-layer="3060" from-port="1" to-layer="3061" to-port="1" />
		<edge from-layer="3061" from-port="2" to-layer="3072" to-port="0" />
		<edge from-layer="3061" from-port="2" to-layer="3062" to-port="0" />
		<edge from-layer="3062" from-port="1" to-layer="3064" to-port="0" />
		<edge from-layer="3063" from-port="0" to-layer="3064" to-port="2" />
		<edge from-layer="3063" from-port="0" to-layer="3067" to-port="1" />
		<edge from-layer="3064" from-port="3" to-layer="3066" to-port="0" />
		<edge from-layer="3064" from-port="3" to-layer="3065" to-port="0" />
		<edge from-layer="3065" from-port="2" to-layer="3069" to-port="0" />
		<edge from-layer="3066" from-port="2" to-layer="3067" to-port="0" />
		<edge from-layer="3067" from-port="2" to-layer="3068" to-port="0" />
		<edge from-layer="3068" from-port="1" to-layer="3069" to-port="1" />
		<edge from-layer="3069" from-port="2" to-layer="3071" to-port="0" />
		<edge from-layer="3070" from-port="0" to-layer="3071" to-port="1" />
		<edge from-layer="3071" from-port="2" to-layer="3072" to-port="2" />
		<edge from-layer="3072" from-port="4" to-layer="3073" to-port="0" />
		<edge from-layer="3072" from-port="3" to-layer="3074" to-port="0" />
		<edge from-layer="3073" from-port="1" to-layer="3074" to-port="1" />
		<edge from-layer="3074" from-port="2" to-layer="3077" to-port="0" />
		<edge from-layer="3075" from-port="0" to-layer="3076" to-port="0" />
		<edge from-layer="3076" from-port="1" to-layer="3077" to-port="1" />
		<edge from-layer="3077" from-port="2" to-layer="3080" to-port="0" />
		<edge from-layer="3078" from-port="0" to-layer="3079" to-port="0" />
		<edge from-layer="3079" from-port="1" to-layer="3080" to-port="1" />
		<edge from-layer="3080" from-port="2" to-layer="3081" to-port="0" />
		<edge from-layer="3081" from-port="2" to-layer="3088" to-port="0" />
		<edge from-layer="3082" from-port="1" to-layer="3085" to-port="0" />
		<edge from-layer="3083" from-port="0" to-layer="3085" to-port="1" />
		<edge from-layer="3084" from-port="0" to-layer="3085" to-port="2" />
		<edge from-layer="3085" from-port="3" to-layer="3087" to-port="0" />
		<edge from-layer="3086" from-port="0" to-layer="3087" to-port="1" />
		<edge from-layer="3087" from-port="2" to-layer="3088" to-port="1" />
		<edge from-layer="3088" from-port="2" to-layer="3090" to-port="0" />
		<edge from-layer="3089" from-port="0" to-layer="3090" to-port="1" />
		<edge from-layer="3090" from-port="2" to-layer="3093" to-port="0" />
		<edge from-layer="3091" from-port="0" to-layer="3092" to-port="0" />
		<edge from-layer="3092" from-port="1" to-layer="3093" to-port="1" />
		<edge from-layer="3093" from-port="2" to-layer="3096" to-port="0" />
		<edge from-layer="3094" from-port="0" to-layer="3095" to-port="0" />
		<edge from-layer="3095" from-port="1" to-layer="3096" to-port="1" />
		<edge from-layer="3096" from-port="2" to-layer="3097" to-port="0" />
		<edge from-layer="3097" from-port="2" to-layer="3098" to-port="0" />
		<edge from-layer="3098" from-port="2" to-layer="3101" to-port="0" />
		<edge from-layer="3098" from-port="2" to-layer="3109" to-port="0" />
		<edge from-layer="3099" from-port="0" to-layer="3100" to-port="0" />
		<edge from-layer="3100" from-port="1" to-layer="3101" to-port="1" />
		<edge from-layer="3101" from-port="2" to-layer="3104" to-port="0" />
		<edge from-layer="3102" from-port="0" to-layer="3103" to-port="0" />
		<edge from-layer="3103" from-port="1" to-layer="3104" to-port="1" />
		<edge from-layer="3104" from-port="2" to-layer="3138" to-port="0" />
		<edge from-layer="3105" from-port="0" to-layer="3106" to-port="0" />
		<edge from-layer="3106" from-port="1" to-layer="3109" to-port="1" />
		<edge from-layer="3107" from-port="0" to-layer="3108" to-port="0" />
		<edge from-layer="3108" from-port="1" to-layer="3109" to-port="2" />
		<edge from-layer="3109" from-port="3" to-layer="3110" to-port="0" />
		<edge from-layer="3110" from-port="1" to-layer="3113" to-port="0" />
		<edge from-layer="3111" from-port="0" to-layer="3112" to-port="0" />
		<edge from-layer="3112" from-port="1" to-layer="3113" to-port="1" />
		<edge from-layer="3113" from-port="2" to-layer="3116" to-port="0" />
		<edge from-layer="3114" from-port="0" to-layer="3115" to-port="0" />
		<edge from-layer="3115" from-port="1" to-layer="3116" to-port="1" />
		<edge from-layer="3116" from-port="2" to-layer="3125" to-port="0" />
		<edge from-layer="3117" from-port="0" to-layer="3118" to-port="0" />
		<edge from-layer="3118" from-port="1" to-layer="3119" to-port="1" />
		<edge from-layer="3119" from-port="2" to-layer="3122" to-port="0" />
		<edge from-layer="3120" from-port="0" to-layer="3121" to-port="0" />
		<edge from-layer="3121" from-port="1" to-layer="3122" to-port="1" />
		<edge from-layer="3122" from-port="2" to-layer="3123" to-port="0" />
		<edge from-layer="3123" from-port="2" to-layer="3124" to-port="0" />
		<edge from-layer="3124" from-port="2" to-layer="3125" to-port="1" />
		<edge from-layer="3125" from-port="2" to-layer="3130" to-port="0" />
		<edge from-layer="3126" from-port="0" to-layer="3127" to-port="0" />
		<edge from-layer="3127" from-port="1" to-layer="3130" to-port="1" />
		<edge from-layer="3128" from-port="0" to-layer="3129" to-port="0" />
		<edge from-layer="3129" from-port="1" to-layer="3130" to-port="2" />
		<edge from-layer="3130" from-port="3" to-layer="3131" to-port="0" />
		<edge from-layer="3131" from-port="1" to-layer="3134" to-port="0" />
		<edge from-layer="3132" from-port="0" to-layer="3133" to-port="0" />
		<edge from-layer="3133" from-port="1" to-layer="3134" to-port="1" />
		<edge from-layer="3134" from-port="2" to-layer="3137" to-port="0" />
		<edge from-layer="3135" from-port="0" to-layer="3136" to-port="0" />
		<edge from-layer="3136" from-port="1" to-layer="3137" to-port="1" />
		<edge from-layer="3137" from-port="2" to-layer="3138" to-port="1" />
		<edge from-layer="3138" from-port="2" to-layer="3284" to-port="1" />
		<edge from-layer="3138" from-port="2" to-layer="3143" to-port="0" />
		<edge from-layer="3138" from-port="2" to-layer="3269" to-port="0" />
		<edge from-layer="3139" from-port="0" to-layer="3140" to-port="0" />
		<edge from-layer="3140" from-port="1" to-layer="3143" to-port="1" />
		<edge from-layer="3141" from-port="0" to-layer="3142" to-port="0" />
		<edge from-layer="3142" from-port="1" to-layer="3143" to-port="2" />
		<edge from-layer="3143" from-port="3" to-layer="3146" to-port="0" />
		<edge from-layer="3144" from-port="0" to-layer="3145" to-port="0" />
		<edge from-layer="3145" from-port="1" to-layer="3146" to-port="1" />
		<edge from-layer="3146" from-port="2" to-layer="3149" to-port="0" />
		<edge from-layer="3147" from-port="0" to-layer="3148" to-port="0" />
		<edge from-layer="3148" from-port="1" to-layer="3149" to-port="1" />
		<edge from-layer="3149" from-port="2" to-layer="3151" to-port="0" />
		<edge from-layer="3150" from-port="0" to-layer="3151" to-port="1" />
		<edge from-layer="3151" from-port="2" to-layer="3153" to-port="0" />
		<edge from-layer="3152" from-port="0" to-layer="3153" to-port="1" />
		<edge from-layer="3153" from-port="2" to-layer="3194" to-port="1" />
		<edge from-layer="3153" from-port="2" to-layer="3155" to-port="0" />
		<edge from-layer="3154" from-port="0" to-layer="3155" to-port="1" />
		<edge from-layer="3155" from-port="2" to-layer="3158" to-port="0" />
		<edge from-layer="3156" from-port="0" to-layer="3157" to-port="0" />
		<edge from-layer="3157" from-port="1" to-layer="3158" to-port="1" />
		<edge from-layer="3158" from-port="2" to-layer="3161" to-port="0" />
		<edge from-layer="3159" from-port="0" to-layer="3160" to-port="0" />
		<edge from-layer="3160" from-port="1" to-layer="3161" to-port="1" />
		<edge from-layer="3161" from-port="2" to-layer="3164" to-port="0" />
		<edge from-layer="3161" from-port="2" to-layer="3171" to-port="0" />
		<edge from-layer="3161" from-port="2" to-layer="3178" to-port="0" />
		<edge from-layer="3162" from-port="0" to-layer="3163" to-port="0" />
		<edge from-layer="3163" from-port="1" to-layer="3164" to-port="1" />
		<edge from-layer="3164" from-port="2" to-layer="3166" to-port="0" />
		<edge from-layer="3165" from-port="0" to-layer="3166" to-port="1" />
		<edge from-layer="3166" from-port="2" to-layer="3168" to-port="0" />
		<edge from-layer="3167" from-port="0" to-layer="3168" to-port="1" />
		<edge from-layer="3168" from-port="2" to-layer="3183" to-port="0" />
		<edge from-layer="3169" from-port="0" to-layer="3170" to-port="0" />
		<edge from-layer="3170" from-port="1" to-layer="3171" to-port="1" />
		<edge from-layer="3171" from-port="2" to-layer="3173" to-port="0" />
		<edge from-layer="3172" from-port="0" to-layer="3173" to-port="1" />
		<edge from-layer="3173" from-port="2" to-layer="3175" to-port="0" />
		<edge from-layer="3174" from-port="0" to-layer="3175" to-port="1" />
		<edge from-layer="3175" from-port="2" to-layer="3183" to-port="1" />
		<edge from-layer="3176" from-port="0" to-layer="3177" to-port="0" />
		<edge from-layer="3177" from-port="1" to-layer="3178" to-port="1" />
		<edge from-layer="3178" from-port="2" to-layer="3180" to-port="0" />
		<edge from-layer="3179" from-port="0" to-layer="3180" to-port="1" />
		<edge from-layer="3180" from-port="2" to-layer="3182" to-port="0" />
		<edge from-layer="3181" from-port="0" to-layer="3182" to-port="1" />
		<edge from-layer="3182" from-port="2" to-layer="3183" to-port="2" />
		<edge from-layer="3183" from-port="3" to-layer="3185" to-port="0" />
		<edge from-layer="3184" from-port="0" to-layer="3185" to-port="1" />
		<edge from-layer="3185" from-port="2" to-layer="3187" to-port="0" />
		<edge from-layer="3186" from-port="0" to-layer="3187" to-port="1" />
		<edge from-layer="3187" from-port="2" to-layer="3190" to-port="0" />
		<edge from-layer="3188" from-port="0" to-layer="3189" to-port="0" />
		<edge from-layer="3189" from-port="1" to-layer="3190" to-port="1" />
		<edge from-layer="3190" from-port="2" to-layer="3193" to-port="0" />
		<edge from-layer="3191" from-port="0" to-layer="3192" to-port="0" />
		<edge from-layer="3192" from-port="1" to-layer="3193" to-port="1" />
		<edge from-layer="3193" from-port="2" to-layer="3194" to-port="0" />
		<edge from-layer="3194" from-port="2" to-layer="3196" to-port="0" />
		<edge from-layer="3194" from-port="2" to-layer="3234" to-port="1" />
		<edge from-layer="3195" from-port="0" to-layer="3196" to-port="1" />
		<edge from-layer="3196" from-port="2" to-layer="3199" to-port="0" />
		<edge from-layer="3197" from-port="0" to-layer="3198" to-port="0" />
		<edge from-layer="3198" from-port="1" to-layer="3199" to-port="1" />
		<edge from-layer="3199" from-port="2" to-layer="3202" to-port="0" />
		<edge from-layer="3200" from-port="0" to-layer="3201" to-port="0" />
		<edge from-layer="3201" from-port="1" to-layer="3202" to-port="1" />
		<edge from-layer="3202" from-port="2" to-layer="3205" to-port="0" />
		<edge from-layer="3203" from-port="0" to-layer="3204" to-port="0" />
		<edge from-layer="3204" from-port="1" to-layer="3205" to-port="1" />
		<edge from-layer="3205" from-port="2" to-layer="3206" to-port="0" />
		<edge from-layer="3206" from-port="2" to-layer="3208" to-port="0" />
		<edge from-layer="3207" from-port="0" to-layer="3208" to-port="1" />
		<edge from-layer="3208" from-port="2" to-layer="3223" to-port="0" />
		<edge from-layer="3209" from-port="0" to-layer="3210" to-port="0" />
		<edge from-layer="3210" from-port="1" to-layer="3211" to-port="1" />
		<edge from-layer="3211" from-port="2" to-layer="3213" to-port="0" />
		<edge from-layer="3212" from-port="0" to-layer="3213" to-port="1" />
		<edge from-layer="3213" from-port="2" to-layer="3215" to-port="0" />
		<edge from-layer="3214" from-port="0" to-layer="3215" to-port="1" />
		<edge from-layer="3215" from-port="2" to-layer="3223" to-port="1" />
		<edge from-layer="3216" from-port="0" to-layer="3217" to-port="0" />
		<edge from-layer="3217" from-port="1" to-layer="3218" to-port="1" />
		<edge from-layer="3218" from-port="2" to-layer="3220" to-port="0" />
		<edge from-layer="3219" from-port="0" to-layer="3220" to-port="1" />
		<edge from-layer="3220" from-port="2" to-layer="3222" to-port="0" />
		<edge from-layer="3221" from-port="0" to-layer="3222" to-port="1" />
		<edge from-layer="3222" from-port="2" to-layer="3223" to-port="2" />
		<edge from-layer="3223" from-port="3" to-layer="3225" to-port="0" />
		<edge from-layer="3224" from-port="0" to-layer="3225" to-port="1" />
		<edge from-layer="3225" from-port="2" to-layer="3227" to-port="0" />
		<edge from-layer="3226" from-port="0" to-layer="3227" to-port="1" />
		<edge from-layer="3227" from-port="2" to-layer="3230" to-port="0" />
		<edge from-layer="3228" from-port="0" to-layer="3229" to-port="0" />
		<edge from-layer="3229" from-port="1" to-layer="3230" to-port="1" />
		<edge from-layer="3230" from-port="2" to-layer="3233" to-port="0" />
		<edge from-layer="3231" from-port="0" to-layer="3232" to-port="0" />
		<edge from-layer="3232" from-port="1" to-layer="3233" to-port="1" />
		<edge from-layer="3233" from-port="2" to-layer="3234" to-port="0" />
		<edge from-layer="3234" from-port="2" to-layer="3236" to-port="0" />
		<edge from-layer="3234" from-port="2" to-layer="3268" to-port="1" />
		<edge from-layer="3235" from-port="0" to-layer="3236" to-port="1" />
		<edge from-layer="3236" from-port="2" to-layer="3239" to-port="0" />
		<edge from-layer="3237" from-port="0" to-layer="3238" to-port="0" />
		<edge from-layer="3238" from-port="1" to-layer="3239" to-port="1" />
		<edge from-layer="3239" from-port="2" to-layer="3242" to-port="0" />
		<edge from-layer="3240" from-port="0" to-layer="3241" to-port="0" />
		<edge from-layer="3241" from-port="1" to-layer="3242" to-port="1" />
		<edge from-layer="3242" from-port="2" to-layer="3245" to-port="0" />
		<edge from-layer="3243" from-port="0" to-layer="3244" to-port="0" />
		<edge from-layer="3244" from-port="1" to-layer="3245" to-port="1" />
		<edge from-layer="3245" from-port="2" to-layer="3248" to-port="0" />
		<edge from-layer="3246" from-port="0" to-layer="3247" to-port="0" />
		<edge from-layer="3247" from-port="1" to-layer="3248" to-port="1" />
		<edge from-layer="3248" from-port="2" to-layer="3249" to-port="0" />
		<edge from-layer="3248" from-port="2" to-layer="3259" to-port="0" />
		<edge from-layer="3249" from-port="1" to-layer="3251" to-port="0" />
		<edge from-layer="3250" from-port="0" to-layer="3254" to-port="1" />
		<edge from-layer="3250" from-port="0" to-layer="3251" to-port="2" />
		<edge from-layer="3251" from-port="3" to-layer="3253" to-port="0" />
		<edge from-layer="3251" from-port="3" to-layer="3252" to-port="0" />
		<edge from-layer="3252" from-port="2" to-layer="3256" to-port="0" />
		<edge from-layer="3253" from-port="2" to-layer="3254" to-port="0" />
		<edge from-layer="3254" from-port="2" to-layer="3255" to-port="0" />
		<edge from-layer="3255" from-port="1" to-layer="3256" to-port="1" />
		<edge from-layer="3256" from-port="2" to-layer="3258" to-port="0" />
		<edge from-layer="3257" from-port="0" to-layer="3258" to-port="1" />
		<edge from-layer="3258" from-port="2" to-layer="3259" to-port="2" />
		<edge from-layer="3259" from-port="4" to-layer="3260" to-port="0" />
		<edge from-layer="3259" from-port="3" to-layer="3261" to-port="0" />
		<edge from-layer="3260" from-port="1" to-layer="3261" to-port="1" />
		<edge from-layer="3261" from-port="2" to-layer="3264" to-port="0" />
		<edge from-layer="3262" from-port="0" to-layer="3263" to-port="0" />
		<edge from-layer="3263" from-port="1" to-layer="3264" to-port="1" />
		<edge from-layer="3264" from-port="2" to-layer="3267" to-port="0" />
		<edge from-layer="3265" from-port="0" to-layer="3266" to-port="0" />
		<edge from-layer="3266" from-port="1" to-layer="3267" to-port="1" />
		<edge from-layer="3267" from-port="2" to-layer="3268" to-port="0" />
		<edge from-layer="3268" from-port="2" to-layer="3275" to-port="0" />
		<edge from-layer="3269" from-port="1" to-layer="3272" to-port="0" />
		<edge from-layer="3270" from-port="0" to-layer="3272" to-port="1" />
		<edge from-layer="3271" from-port="0" to-layer="3272" to-port="2" />
		<edge from-layer="3272" from-port="3" to-layer="3274" to-port="0" />
		<edge from-layer="3273" from-port="0" to-layer="3274" to-port="1" />
		<edge from-layer="3274" from-port="2" to-layer="3275" to-port="1" />
		<edge from-layer="3275" from-port="2" to-layer="3277" to-port="0" />
		<edge from-layer="3276" from-port="0" to-layer="3277" to-port="1" />
		<edge from-layer="3277" from-port="2" to-layer="3280" to-port="0" />
		<edge from-layer="3278" from-port="0" to-layer="3279" to-port="0" />
		<edge from-layer="3279" from-port="1" to-layer="3280" to-port="1" />
		<edge from-layer="3280" from-port="2" to-layer="3283" to-port="0" />
		<edge from-layer="3281" from-port="0" to-layer="3282" to-port="0" />
		<edge from-layer="3282" from-port="1" to-layer="3283" to-port="1" />
		<edge from-layer="3283" from-port="2" to-layer="3284" to-port="0" />
		<edge from-layer="3284" from-port="2" to-layer="3289" to-port="0" />
		<edge from-layer="3285" from-port="0" to-layer="3286" to-port="0" />
		<edge from-layer="3286" from-port="1" to-layer="3289" to-port="1" />
		<edge from-layer="3287" from-port="0" to-layer="3288" to-port="0" />
		<edge from-layer="3288" from-port="1" to-layer="3289" to-port="2" />
		<edge from-layer="3289" from-port="3" to-layer="3290" to-port="0" />
		<edge from-layer="3290" from-port="1" to-layer="3293" to-port="0" />
		<edge from-layer="3291" from-port="0" to-layer="3292" to-port="0" />
		<edge from-layer="3292" from-port="1" to-layer="3293" to-port="1" />
		<edge from-layer="3293" from-port="2" to-layer="3295" to-port="0" />
		<edge from-layer="3294" from-port="0" to-layer="3295" to-port="1" />
		<edge from-layer="3295" from-port="2" to-layer="3296" to-port="0" />
	</edges>
	<rt_info>
		<info name="OpenVINO Runtime" value="2026.2.1-21919-ede283a88e3-releases/2026/2" />
		<Runtime_version value="2026.2.1-21919-ede283a88e3-releases/2026/2" />
		<conversion_parameters>
			<framework value="pytorch" />
			<is_python_object value="True" />
		</conversion_parameters>
	</rt_info>
</net>
